<?xml version="1.0" ?>
<net name="model_1" version="11">
	<layers>
		<layer id="1" name="input_1" type="Parameter" version="opset1">
			<data shape="1,3,416,416" element_type="f32"/>
			<rt_info>
				<attribute name="fused_names" version="0" value="input_1"/>
			</rt_info>
			<output>
				<port id="0" precision="FP32" names="input_1">
					<dim>1</dim>
					<dim>3</dim>
					<dim>416</dim>
					<dim>416</dim>
					<rt_info>
						<attribute name="layout" version="0" layout="[N,C,H,W]"/>
					</rt_info>
				</port>
			</output>
		</layer>
		<layer id="0" name="image_shape" type="Parameter" version="opset1">
			<data shape="1,2" element_type="f32"/>
			<rt_info>
				<attribute name="fused_names" version="0" value="image_shape"/>
			</rt_info>
			<output>
				<port id="0" precision="FP32" names="image_shape">
					<dim>1</dim>
					<dim>2</dim>
					<rt_info>
						<attribute name="layout" version="0" layout="[N,C]"/>
					</rt_info>
				</port>
			</output>
		</layer>
		<layer id="2" name="Gather_30275" type="Const" version="opset1">
			<data element_type="f32" shape="32, 3, 3, 3" offset="0" size="3456"/>
			<output>
				<port id="0" precision="FP32">
					<dim>32</dim>
					<dim>3</dim>
					<dim>3</dim>
					<dim>3</dim>
				</port>
			</output>
		</layer>
		<layer id="3" name="Multiply_26708" type="Convolution" version="opset1">
			<data strides="1, 1" dilations="1, 1" pads_begin="0, 0" pads_end="0, 0" auto_pad="same_upper"/>
			<rt_info>
				<attribute name="fused_names" version="0" value="Constant_2820, Divide_2821, W74, batch_norm_output_buffer71, bias71, convolution_output74, mean69, scale71, var69"/>
				<attribute name="preprocessing" version="0"/>
			</rt_info>
			<input>
				<port id="0" precision="FP32">
					<dim>1</dim>
					<dim>3</dim>
					<dim>416</dim>
					<dim>416</dim>
				</port>
				<port id="1" precision="FP32">
					<dim>32</dim>
					<dim>3</dim>
					<dim>3</dim>
					<dim>3</dim>
				</port>
			</input>
			<output>
				<port id="2" precision="FP32">
					<dim>1</dim>
					<dim>32</dim>
					<dim>416</dim>
					<dim>416</dim>
				</port>
			</output>
		</layer>
		<layer id="4" name="Constant_26713" type="Const" version="opset1">
			<data element_type="f32" shape="1, 32, 1, 1" offset="3456" size="128"/>
			<output>
				<port id="0" precision="FP32">
					<dim>1</dim>
					<dim>32</dim>
					<dim>1</dim>
					<dim>1</dim>
				</port>
			</output>
		</layer>
		<layer id="5" name="batch_norm_output_buffer71" type="Add" version="opset1">
			<data auto_broadcast="numpy"/>
			<rt_info>
				<attribute name="fused_names" version="0" value="batch_norm_output_buffer71, bias71, mean69, scale71, var69"/>
			</rt_info>
			<input>
				<port id="0" precision="FP32">
					<dim>1</dim>
					<dim>32</dim>
					<dim>416</dim>
					<dim>416</dim>
				</port>
				<port id="1" precision="FP32">
					<dim>1</dim>
					<dim>32</dim>
					<dim>1</dim>
					<dim>1</dim>
				</port>
			</input>
			<output>
				<port id="2" precision="FP32" names="batch_norm_output_buffer71">
					<dim>1</dim>
					<dim>32</dim>
					<dim>416</dim>
					<dim>416</dim>
				</port>
			</output>
		</layer>
		<layer id="6" name="Constant_274" type="Const" version="opset1">
			<data element_type="f32" shape="1" offset="3584" size="4"/>
			<rt_info>
				<attribute name="fused_names" version="0" value="Constant_274"/>
			</rt_info>
			<output>
				<port id="0" precision="FP32">
					<dim>1</dim>
				</port>
			</output>
		</layer>
		<layer id="7" name="model_1/leaky_re_lu_1/LeakyRelu:0" type="PReLU" version="opset1">
			<rt_info>
				<attribute name="fused_names" version="0" value="model_1/leaky_re_lu_1/LeakyRelu:0"/>
			</rt_info>
			<input>
				<port id="0" precision="FP32">
					<dim>1</dim>
					<dim>32</dim>
					<dim>416</dim>
					<dim>416</dim>
				</port>
				<port id="1" precision="FP32">
					<dim>1</dim>
				</port>
			</input>
			<output>
				<port id="2" precision="FP32" names="model_1/leaky_re_lu_1/LeakyRelu:0">
					<dim>1</dim>
					<dim>32</dim>
					<dim>416</dim>
					<dim>416</dim>
				</port>
			</output>
		</layer>
		<layer id="8" name="Multiply_27234" type="Const" version="opset1">
			<data element_type="f32" shape="64, 32, 3, 3" offset="3588" size="73728"/>
			<output>
				<port id="0" precision="FP32">
					<dim>64</dim>
					<dim>32</dim>
					<dim>3</dim>
					<dim>3</dim>
				</port>
			</output>
		</layer>
		<layer id="9" name="Multiply_26715" type="Convolution" version="opset1">
			<data strides="2, 2" dilations="1, 1" pads_begin="1, 1" pads_end="0, 0" auto_pad="explicit"/>
			<rt_info>
				<attribute name="fused_names" version="0" value="batch_norm_output_buffer70, bias70, convolution_output73, mean64, scale70, var64"/>
			</rt_info>
			<input>
				<port id="0" precision="FP32">
					<dim>1</dim>
					<dim>32</dim>
					<dim>416</dim>
					<dim>416</dim>
				</port>
				<port id="1" precision="FP32">
					<dim>64</dim>
					<dim>32</dim>
					<dim>3</dim>
					<dim>3</dim>
				</port>
			</input>
			<output>
				<port id="2" precision="FP32">
					<dim>1</dim>
					<dim>64</dim>
					<dim>208</dim>
					<dim>208</dim>
				</port>
			</output>
		</layer>
		<layer id="10" name="Constant_26720" type="Const" version="opset1">
			<data element_type="f32" shape="1, 64, 1, 1" offset="77316" size="256"/>
			<output>
				<port id="0" precision="FP32">
					<dim>1</dim>
					<dim>64</dim>
					<dim>1</dim>
					<dim>1</dim>
				</port>
			</output>
		</layer>
		<layer id="11" name="batch_norm_output_buffer70" type="Add" version="opset1">
			<data auto_broadcast="numpy"/>
			<rt_info>
				<attribute name="fused_names" version="0" value="batch_norm_output_buffer70, bias70, mean64, scale70, var64"/>
			</rt_info>
			<input>
				<port id="0" precision="FP32">
					<dim>1</dim>
					<dim>64</dim>
					<dim>208</dim>
					<dim>208</dim>
				</port>
				<port id="1" precision="FP32">
					<dim>1</dim>
					<dim>64</dim>
					<dim>1</dim>
					<dim>1</dim>
				</port>
			</input>
			<output>
				<port id="2" precision="FP32" names="batch_norm_output_buffer70">
					<dim>1</dim>
					<dim>64</dim>
					<dim>208</dim>
					<dim>208</dim>
				</port>
			</output>
		</layer>
		<layer id="12" name="Constant_279" type="Const" version="opset1">
			<data element_type="f32" shape="1" offset="3584" size="4"/>
			<rt_info>
				<attribute name="fused_names" version="0" value="Constant_279"/>
			</rt_info>
			<output>
				<port id="0" precision="FP32">
					<dim>1</dim>
				</port>
			</output>
		</layer>
		<layer id="13" name="model_1/leaky_re_lu_2/LeakyRelu:0" type="PReLU" version="opset1">
			<rt_info>
				<attribute name="fused_names" version="0" value="model_1/leaky_re_lu_2/LeakyRelu:0"/>
			</rt_info>
			<input>
				<port id="0" precision="FP32">
					<dim>1</dim>
					<dim>64</dim>
					<dim>208</dim>
					<dim>208</dim>
				</port>
				<port id="1" precision="FP32">
					<dim>1</dim>
				</port>
			</input>
			<output>
				<port id="2" precision="FP32" names="model_1/leaky_re_lu_2/LeakyRelu:0">
					<dim>1</dim>
					<dim>64</dim>
					<dim>208</dim>
					<dim>208</dim>
				</port>
			</output>
		</layer>
		<layer id="14" name="Multiply_27243" type="Const" version="opset1">
			<data element_type="f32" shape="32, 64, 1, 1" offset="77572" size="8192"/>
			<output>
				<port id="0" precision="FP32">
					<dim>32</dim>
					<dim>64</dim>
					<dim>1</dim>
					<dim>1</dim>
				</port>
			</output>
		</layer>
		<layer id="15" name="Multiply_26722" type="Convolution" version="opset1">
			<data strides="1, 1" dilations="1, 1" pads_begin="0, 0" pads_end="0, 0" auto_pad="same_upper"/>
			<rt_info>
				<attribute name="fused_names" version="0" value="batch_norm_output_buffer69, bias69, convolution_output72, mean69, scale69, var69"/>
			</rt_info>
			<input>
				<port id="0" precision="FP32">
					<dim>1</dim>
					<dim>64</dim>
					<dim>208</dim>
					<dim>208</dim>
				</port>
				<port id="1" precision="FP32">
					<dim>32</dim>
					<dim>64</dim>
					<dim>1</dim>
					<dim>1</dim>
				</port>
			</input>
			<output>
				<port id="2" precision="FP32">
					<dim>1</dim>
					<dim>32</dim>
					<dim>208</dim>
					<dim>208</dim>
				</port>
			</output>
		</layer>
		<layer id="16" name="Constant_26727" type="Const" version="opset1">
			<data element_type="f32" shape="1, 32, 1, 1" offset="85764" size="128"/>
			<output>
				<port id="0" precision="FP32">
					<dim>1</dim>
					<dim>32</dim>
					<dim>1</dim>
					<dim>1</dim>
				</port>
			</output>
		</layer>
		<layer id="17" name="batch_norm_output_buffer69" type="Add" version="opset1">
			<data auto_broadcast="numpy"/>
			<rt_info>
				<attribute name="fused_names" version="0" value="batch_norm_output_buffer69, bias69, mean69, scale69, var69"/>
			</rt_info>
			<input>
				<port id="0" precision="FP32">
					<dim>1</dim>
					<dim>32</dim>
					<dim>208</dim>
					<dim>208</dim>
				</port>
				<port id="1" precision="FP32">
					<dim>1</dim>
					<dim>32</dim>
					<dim>1</dim>
					<dim>1</dim>
				</port>
			</input>
			<output>
				<port id="2" precision="FP32" names="batch_norm_output_buffer69">
					<dim>1</dim>
					<dim>32</dim>
					<dim>208</dim>
					<dim>208</dim>
				</port>
			</output>
		</layer>
		<layer id="18" name="Constant_284" type="Const" version="opset1">
			<data element_type="f32" shape="1" offset="3584" size="4"/>
			<rt_info>
				<attribute name="fused_names" version="0" value="Constant_284"/>
			</rt_info>
			<output>
				<port id="0" precision="FP32">
					<dim>1</dim>
				</port>
			</output>
		</layer>
		<layer id="19" name="model_1/leaky_re_lu_3/LeakyRelu:0" type="PReLU" version="opset1">
			<rt_info>
				<attribute name="fused_names" version="0" value="model_1/leaky_re_lu_3/LeakyRelu:0"/>
			</rt_info>
			<input>
				<port id="0" precision="FP32">
					<dim>1</dim>
					<dim>32</dim>
					<dim>208</dim>
					<dim>208</dim>
				</port>
				<port id="1" precision="FP32">
					<dim>1</dim>
				</port>
			</input>
			<output>
				<port id="2" precision="FP32" names="model_1/leaky_re_lu_3/LeakyRelu:0">
					<dim>1</dim>
					<dim>32</dim>
					<dim>208</dim>
					<dim>208</dim>
				</port>
			</output>
		</layer>
		<layer id="20" name="Multiply_27252" type="Const" version="opset1">
			<data element_type="f32" shape="64, 32, 3, 3" offset="85892" size="73728"/>
			<output>
				<port id="0" precision="FP32">
					<dim>64</dim>
					<dim>32</dim>
					<dim>3</dim>
					<dim>3</dim>
				</port>
			</output>
		</layer>
		<layer id="21" name="Multiply_26729" type="Convolution" version="opset1">
			<data strides="1, 1" dilations="1, 1" pads_begin="0, 0" pads_end="0, 0" auto_pad="same_upper"/>
			<rt_info>
				<attribute name="fused_names" version="0" value="batch_norm_output_buffer68, bias68, convolution_output71, mean64, scale68, var64"/>
			</rt_info>
			<input>
				<port id="0" precision="FP32">
					<dim>1</dim>
					<dim>32</dim>
					<dim>208</dim>
					<dim>208</dim>
				</port>
				<port id="1" precision="FP32">
					<dim>64</dim>
					<dim>32</dim>
					<dim>3</dim>
					<dim>3</dim>
				</port>
			</input>
			<output>
				<port id="2" precision="FP32">
					<dim>1</dim>
					<dim>64</dim>
					<dim>208</dim>
					<dim>208</dim>
				</port>
			</output>
		</layer>
		<layer id="22" name="Constant_26734" type="Const" version="opset1">
			<data element_type="f32" shape="1, 64, 1, 1" offset="159620" size="256"/>
			<output>
				<port id="0" precision="FP32">
					<dim>1</dim>
					<dim>64</dim>
					<dim>1</dim>
					<dim>1</dim>
				</port>
			</output>
		</layer>
		<layer id="23" name="batch_norm_output_buffer68" type="Add" version="opset1">
			<data auto_broadcast="numpy"/>
			<rt_info>
				<attribute name="fused_names" version="0" value="batch_norm_output_buffer68, bias68, mean64, scale68, var64"/>
			</rt_info>
			<input>
				<port id="0" precision="FP32">
					<dim>1</dim>
					<dim>64</dim>
					<dim>208</dim>
					<dim>208</dim>
				</port>
				<port id="1" precision="FP32">
					<dim>1</dim>
					<dim>64</dim>
					<dim>1</dim>
					<dim>1</dim>
				</port>
			</input>
			<output>
				<port id="2" precision="FP32" names="batch_norm_output_buffer68">
					<dim>1</dim>
					<dim>64</dim>
					<dim>208</dim>
					<dim>208</dim>
				</port>
			</output>
		</layer>
		<layer id="24" name="Constant_289" type="Const" version="opset1">
			<data element_type="f32" shape="1" offset="3584" size="4"/>
			<rt_info>
				<attribute name="fused_names" version="0" value="Constant_289"/>
			</rt_info>
			<output>
				<port id="0" precision="FP32">
					<dim>1</dim>
				</port>
			</output>
		</layer>
		<layer id="25" name="model_1/leaky_re_lu_4/LeakyRelu:0" type="PReLU" version="opset1">
			<rt_info>
				<attribute name="fused_names" version="0" value="model_1/leaky_re_lu_4/LeakyRelu:0"/>
			</rt_info>
			<input>
				<port id="0" precision="FP32">
					<dim>1</dim>
					<dim>64</dim>
					<dim>208</dim>
					<dim>208</dim>
				</port>
				<port id="1" precision="FP32">
					<dim>1</dim>
				</port>
			</input>
			<output>
				<port id="2" precision="FP32" names="model_1/leaky_re_lu_4/LeakyRelu:0">
					<dim>1</dim>
					<dim>64</dim>
					<dim>208</dim>
					<dim>208</dim>
				</port>
			</output>
		</layer>
		<layer id="26" name="model_1/add_1/add:0" type="Add" version="opset1">
			<data auto_broadcast="numpy"/>
			<rt_info>
				<attribute name="fused_names" version="0" value="model_1/add_1/add:0"/>
			</rt_info>
			<input>
				<port id="0" precision="FP32">
					<dim>1</dim>
					<dim>64</dim>
					<dim>208</dim>
					<dim>208</dim>
				</port>
				<port id="1" precision="FP32">
					<dim>1</dim>
					<dim>64</dim>
					<dim>208</dim>
					<dim>208</dim>
				</port>
			</input>
			<output>
				<port id="2" precision="FP32" names="model_1/add_1/add:0">
					<dim>1</dim>
					<dim>64</dim>
					<dim>208</dim>
					<dim>208</dim>
				</port>
			</output>
		</layer>
		<layer id="27" name="Multiply_27261" type="Const" version="opset1">
			<data element_type="f32" shape="128, 64, 3, 3" offset="159876" size="294912"/>
			<output>
				<port id="0" precision="FP32">
					<dim>128</dim>
					<dim>64</dim>
					<dim>3</dim>
					<dim>3</dim>
				</port>
			</output>
		</layer>
		<layer id="28" name="Multiply_26736" type="Convolution" version="opset1">
			<data strides="2, 2" dilations="1, 1" pads_begin="1, 1" pads_end="0, 0" auto_pad="explicit"/>
			<rt_info>
				<attribute name="fused_names" version="0" value="batch_norm_output_buffer67, bias67, convolution_output70, mean7, scale67, var5"/>
			</rt_info>
			<input>
				<port id="0" precision="FP32">
					<dim>1</dim>
					<dim>64</dim>
					<dim>208</dim>
					<dim>208</dim>
				</port>
				<port id="1" precision="FP32">
					<dim>128</dim>
					<dim>64</dim>
					<dim>3</dim>
					<dim>3</dim>
				</port>
			</input>
			<output>
				<port id="2" precision="FP32">
					<dim>1</dim>
					<dim>128</dim>
					<dim>104</dim>
					<dim>104</dim>
				</port>
			</output>
		</layer>
		<layer id="29" name="Constant_26741" type="Const" version="opset1">
			<data element_type="f32" shape="1, 128, 1, 1" offset="454788" size="512"/>
			<output>
				<port id="0" precision="FP32">
					<dim>1</dim>
					<dim>128</dim>
					<dim>1</dim>
					<dim>1</dim>
				</port>
			</output>
		</layer>
		<layer id="30" name="batch_norm_output_buffer67" type="Add" version="opset1">
			<data auto_broadcast="numpy"/>
			<rt_info>
				<attribute name="fused_names" version="0" value="batch_norm_output_buffer67, bias67, mean7, scale67, var5"/>
			</rt_info>
			<input>
				<port id="0" precision="FP32">
					<dim>1</dim>
					<dim>128</dim>
					<dim>104</dim>
					<dim>104</dim>
				</port>
				<port id="1" precision="FP32">
					<dim>1</dim>
					<dim>128</dim>
					<dim>1</dim>
					<dim>1</dim>
				</port>
			</input>
			<output>
				<port id="2" precision="FP32" names="batch_norm_output_buffer67">
					<dim>1</dim>
					<dim>128</dim>
					<dim>104</dim>
					<dim>104</dim>
				</port>
			</output>
		</layer>
		<layer id="31" name="Constant_295" type="Const" version="opset1">
			<data element_type="f32" shape="1" offset="3584" size="4"/>
			<rt_info>
				<attribute name="fused_names" version="0" value="Constant_295"/>
			</rt_info>
			<output>
				<port id="0" precision="FP32">
					<dim>1</dim>
				</port>
			</output>
		</layer>
		<layer id="32" name="model_1/leaky_re_lu_5/LeakyRelu:0" type="PReLU" version="opset1">
			<rt_info>
				<attribute name="fused_names" version="0" value="model_1/leaky_re_lu_5/LeakyRelu:0"/>
			</rt_info>
			<input>
				<port id="0" precision="FP32">
					<dim>1</dim>
					<dim>128</dim>
					<dim>104</dim>
					<dim>104</dim>
				</port>
				<port id="1" precision="FP32">
					<dim>1</dim>
				</port>
			</input>
			<output>
				<port id="2" precision="FP32" names="model_1/leaky_re_lu_5/LeakyRelu:0">
					<dim>1</dim>
					<dim>128</dim>
					<dim>104</dim>
					<dim>104</dim>
				</port>
			</output>
		</layer>
		<layer id="33" name="Multiply_27270" type="Const" version="opset1">
			<data element_type="f32" shape="64, 128, 1, 1" offset="455300" size="32768"/>
			<output>
				<port id="0" precision="FP32">
					<dim>64</dim>
					<dim>128</dim>
					<dim>1</dim>
					<dim>1</dim>
				</port>
			</output>
		</layer>
		<layer id="34" name="Multiply_26743" type="Convolution" version="opset1">
			<data strides="1, 1" dilations="1, 1" pads_begin="0, 0" pads_end="0, 0" auto_pad="same_upper"/>
			<rt_info>
				<attribute name="fused_names" version="0" value="batch_norm_output_buffer66, bias66, convolution_output69, mean64, scale66, var64"/>
			</rt_info>
			<input>
				<port id="0" precision="FP32">
					<dim>1</dim>
					<dim>128</dim>
					<dim>104</dim>
					<dim>104</dim>
				</port>
				<port id="1" precision="FP32">
					<dim>64</dim>
					<dim>128</dim>
					<dim>1</dim>
					<dim>1</dim>
				</port>
			</input>
			<output>
				<port id="2" precision="FP32">
					<dim>1</dim>
					<dim>64</dim>
					<dim>104</dim>
					<dim>104</dim>
				</port>
			</output>
		</layer>
		<layer id="35" name="Constant_26748" type="Const" version="opset1">
			<data element_type="f32" shape="1, 64, 1, 1" offset="488068" size="256"/>
			<output>
				<port id="0" precision="FP32">
					<dim>1</dim>
					<dim>64</dim>
					<dim>1</dim>
					<dim>1</dim>
				</port>
			</output>
		</layer>
		<layer id="36" name="batch_norm_output_buffer66" type="Add" version="opset1">
			<data auto_broadcast="numpy"/>
			<rt_info>
				<attribute name="fused_names" version="0" value="batch_norm_output_buffer66, bias66, mean64, scale66, var64"/>
			</rt_info>
			<input>
				<port id="0" precision="FP32">
					<dim>1</dim>
					<dim>64</dim>
					<dim>104</dim>
					<dim>104</dim>
				</port>
				<port id="1" precision="FP32">
					<dim>1</dim>
					<dim>64</dim>
					<dim>1</dim>
					<dim>1</dim>
				</port>
			</input>
			<output>
				<port id="2" precision="FP32" names="batch_norm_output_buffer66">
					<dim>1</dim>
					<dim>64</dim>
					<dim>104</dim>
					<dim>104</dim>
				</port>
			</output>
		</layer>
		<layer id="37" name="Constant_300" type="Const" version="opset1">
			<data element_type="f32" shape="1" offset="3584" size="4"/>
			<rt_info>
				<attribute name="fused_names" version="0" value="Constant_300"/>
			</rt_info>
			<output>
				<port id="0" precision="FP32">
					<dim>1</dim>
				</port>
			</output>
		</layer>
		<layer id="38" name="model_1/leaky_re_lu_6/LeakyRelu:0" type="PReLU" version="opset1">
			<rt_info>
				<attribute name="fused_names" version="0" value="model_1/leaky_re_lu_6/LeakyRelu:0"/>
			</rt_info>
			<input>
				<port id="0" precision="FP32">
					<dim>1</dim>
					<dim>64</dim>
					<dim>104</dim>
					<dim>104</dim>
				</port>
				<port id="1" precision="FP32">
					<dim>1</dim>
				</port>
			</input>
			<output>
				<port id="2" precision="FP32" names="model_1/leaky_re_lu_6/LeakyRelu:0">
					<dim>1</dim>
					<dim>64</dim>
					<dim>104</dim>
					<dim>104</dim>
				</port>
			</output>
		</layer>
		<layer id="39" name="Multiply_27279" type="Const" version="opset1">
			<data element_type="f32" shape="128, 64, 3, 3" offset="488324" size="294912"/>
			<output>
				<port id="0" precision="FP32">
					<dim>128</dim>
					<dim>64</dim>
					<dim>3</dim>
					<dim>3</dim>
				</port>
			</output>
		</layer>
		<layer id="40" name="Multiply_26750" type="Convolution" version="opset1">
			<data strides="1, 1" dilations="1, 1" pads_begin="0, 0" pads_end="0, 0" auto_pad="same_upper"/>
			<rt_info>
				<attribute name="fused_names" version="0" value="batch_norm_output_buffer65, bias65, convolution_output68, mean7, scale65, var5"/>
			</rt_info>
			<input>
				<port id="0" precision="FP32">
					<dim>1</dim>
					<dim>64</dim>
					<dim>104</dim>
					<dim>104</dim>
				</port>
				<port id="1" precision="FP32">
					<dim>128</dim>
					<dim>64</dim>
					<dim>3</dim>
					<dim>3</dim>
				</port>
			</input>
			<output>
				<port id="2" precision="FP32">
					<dim>1</dim>
					<dim>128</dim>
					<dim>104</dim>
					<dim>104</dim>
				</port>
			</output>
		</layer>
		<layer id="41" name="Constant_26755" type="Const" version="opset1">
			<data element_type="f32" shape="1, 128, 1, 1" offset="783236" size="512"/>
			<output>
				<port id="0" precision="FP32">
					<dim>1</dim>
					<dim>128</dim>
					<dim>1</dim>
					<dim>1</dim>
				</port>
			</output>
		</layer>
		<layer id="42" name="batch_norm_output_buffer65" type="Add" version="opset1">
			<data auto_broadcast="numpy"/>
			<rt_info>
				<attribute name="fused_names" version="0" value="batch_norm_output_buffer65, bias65, mean7, scale65, var5"/>
			</rt_info>
			<input>
				<port id="0" precision="FP32">
					<dim>1</dim>
					<dim>128</dim>
					<dim>104</dim>
					<dim>104</dim>
				</port>
				<port id="1" precision="FP32">
					<dim>1</dim>
					<dim>128</dim>
					<dim>1</dim>
					<dim>1</dim>
				</port>
			</input>
			<output>
				<port id="2" precision="FP32" names="batch_norm_output_buffer65">
					<dim>1</dim>
					<dim>128</dim>
					<dim>104</dim>
					<dim>104</dim>
				</port>
			</output>
		</layer>
		<layer id="43" name="Constant_305" type="Const" version="opset1">
			<data element_type="f32" shape="1" offset="3584" size="4"/>
			<rt_info>
				<attribute name="fused_names" version="0" value="Constant_305"/>
			</rt_info>
			<output>
				<port id="0" precision="FP32">
					<dim>1</dim>
				</port>
			</output>
		</layer>
		<layer id="44" name="model_1/leaky_re_lu_7/LeakyRelu:0" type="PReLU" version="opset1">
			<rt_info>
				<attribute name="fused_names" version="0" value="model_1/leaky_re_lu_7/LeakyRelu:0"/>
			</rt_info>
			<input>
				<port id="0" precision="FP32">
					<dim>1</dim>
					<dim>128</dim>
					<dim>104</dim>
					<dim>104</dim>
				</port>
				<port id="1" precision="FP32">
					<dim>1</dim>
				</port>
			</input>
			<output>
				<port id="2" precision="FP32" names="model_1/leaky_re_lu_7/LeakyRelu:0">
					<dim>1</dim>
					<dim>128</dim>
					<dim>104</dim>
					<dim>104</dim>
				</port>
			</output>
		</layer>
		<layer id="45" name="model_1/add_2/add:0" type="Add" version="opset1">
			<data auto_broadcast="numpy"/>
			<rt_info>
				<attribute name="fused_names" version="0" value="model_1/add_2/add:0"/>
			</rt_info>
			<input>
				<port id="0" precision="FP32">
					<dim>1</dim>
					<dim>128</dim>
					<dim>104</dim>
					<dim>104</dim>
				</port>
				<port id="1" precision="FP32">
					<dim>1</dim>
					<dim>128</dim>
					<dim>104</dim>
					<dim>104</dim>
				</port>
			</input>
			<output>
				<port id="2" precision="FP32" names="model_1/add_2/add:0">
					<dim>1</dim>
					<dim>128</dim>
					<dim>104</dim>
					<dim>104</dim>
				</port>
			</output>
		</layer>
		<layer id="46" name="Multiply_27288" type="Const" version="opset1">
			<data element_type="f32" shape="64, 128, 1, 1" offset="783748" size="32768"/>
			<output>
				<port id="0" precision="FP32">
					<dim>64</dim>
					<dim>128</dim>
					<dim>1</dim>
					<dim>1</dim>
				</port>
			</output>
		</layer>
		<layer id="47" name="Multiply_26757" type="Convolution" version="opset1">
			<data strides="1, 1" dilations="1, 1" pads_begin="0, 0" pads_end="0, 0" auto_pad="same_upper"/>
			<rt_info>
				<attribute name="fused_names" version="0" value="batch_norm_output_buffer64, bias64, convolution_output67, mean64, scale64, var64"/>
			</rt_info>
			<input>
				<port id="0" precision="FP32">
					<dim>1</dim>
					<dim>128</dim>
					<dim>104</dim>
					<dim>104</dim>
				</port>
				<port id="1" precision="FP32">
					<dim>64</dim>
					<dim>128</dim>
					<dim>1</dim>
					<dim>1</dim>
				</port>
			</input>
			<output>
				<port id="2" precision="FP32">
					<dim>1</dim>
					<dim>64</dim>
					<dim>104</dim>
					<dim>104</dim>
				</port>
			</output>
		</layer>
		<layer id="48" name="Constant_26762" type="Const" version="opset1">
			<data element_type="f32" shape="1, 64, 1, 1" offset="816516" size="256"/>
			<output>
				<port id="0" precision="FP32">
					<dim>1</dim>
					<dim>64</dim>
					<dim>1</dim>
					<dim>1</dim>
				</port>
			</output>
		</layer>
		<layer id="49" name="batch_norm_output_buffer64" type="Add" version="opset1">
			<data auto_broadcast="numpy"/>
			<rt_info>
				<attribute name="fused_names" version="0" value="batch_norm_output_buffer64, bias64, mean64, scale64, var64"/>
			</rt_info>
			<input>
				<port id="0" precision="FP32">
					<dim>1</dim>
					<dim>64</dim>
					<dim>104</dim>
					<dim>104</dim>
				</port>
				<port id="1" precision="FP32">
					<dim>1</dim>
					<dim>64</dim>
					<dim>1</dim>
					<dim>1</dim>
				</port>
			</input>
			<output>
				<port id="2" precision="FP32" names="batch_norm_output_buffer64">
					<dim>1</dim>
					<dim>64</dim>
					<dim>104</dim>
					<dim>104</dim>
				</port>
			</output>
		</layer>
		<layer id="50" name="Constant_311" type="Const" version="opset1">
			<data element_type="f32" shape="1" offset="3584" size="4"/>
			<rt_info>
				<attribute name="fused_names" version="0" value="Constant_311"/>
			</rt_info>
			<output>
				<port id="0" precision="FP32">
					<dim>1</dim>
				</port>
			</output>
		</layer>
		<layer id="51" name="model_1/leaky_re_lu_8/LeakyRelu:0" type="PReLU" version="opset1">
			<rt_info>
				<attribute name="fused_names" version="0" value="model_1/leaky_re_lu_8/LeakyRelu:0"/>
			</rt_info>
			<input>
				<port id="0" precision="FP32">
					<dim>1</dim>
					<dim>64</dim>
					<dim>104</dim>
					<dim>104</dim>
				</port>
				<port id="1" precision="FP32">
					<dim>1</dim>
				</port>
			</input>
			<output>
				<port id="2" precision="FP32" names="model_1/leaky_re_lu_8/LeakyRelu:0">
					<dim>1</dim>
					<dim>64</dim>
					<dim>104</dim>
					<dim>104</dim>
				</port>
			</output>
		</layer>
		<layer id="52" name="Multiply_27297" type="Const" version="opset1">
			<data element_type="f32" shape="128, 64, 3, 3" offset="816772" size="294912"/>
			<output>
				<port id="0" precision="FP32">
					<dim>128</dim>
					<dim>64</dim>
					<dim>3</dim>
					<dim>3</dim>
				</port>
			</output>
		</layer>
		<layer id="53" name="Multiply_26764" type="Convolution" version="opset1">
			<data strides="1, 1" dilations="1, 1" pads_begin="0, 0" pads_end="0, 0" auto_pad="same_upper"/>
			<rt_info>
				<attribute name="fused_names" version="0" value="batch_norm_output_buffer63, bias63, convolution_output66, mean7, scale63, var5"/>
			</rt_info>
			<input>
				<port id="0" precision="FP32">
					<dim>1</dim>
					<dim>64</dim>
					<dim>104</dim>
					<dim>104</dim>
				</port>
				<port id="1" precision="FP32">
					<dim>128</dim>
					<dim>64</dim>
					<dim>3</dim>
					<dim>3</dim>
				</port>
			</input>
			<output>
				<port id="2" precision="FP32">
					<dim>1</dim>
					<dim>128</dim>
					<dim>104</dim>
					<dim>104</dim>
				</port>
			</output>
		</layer>
		<layer id="54" name="Constant_26769" type="Const" version="opset1">
			<data element_type="f32" shape="1, 128, 1, 1" offset="1111684" size="512"/>
			<output>
				<port id="0" precision="FP32">
					<dim>1</dim>
					<dim>128</dim>
					<dim>1</dim>
					<dim>1</dim>
				</port>
			</output>
		</layer>
		<layer id="55" name="batch_norm_output_buffer63" type="Add" version="opset1">
			<data auto_broadcast="numpy"/>
			<rt_info>
				<attribute name="fused_names" version="0" value="batch_norm_output_buffer63, bias63, mean7, scale63, var5"/>
			</rt_info>
			<input>
				<port id="0" precision="FP32">
					<dim>1</dim>
					<dim>128</dim>
					<dim>104</dim>
					<dim>104</dim>
				</port>
				<port id="1" precision="FP32">
					<dim>1</dim>
					<dim>128</dim>
					<dim>1</dim>
					<dim>1</dim>
				</port>
			</input>
			<output>
				<port id="2" precision="FP32" names="batch_norm_output_buffer63">
					<dim>1</dim>
					<dim>128</dim>
					<dim>104</dim>
					<dim>104</dim>
				</port>
			</output>
		</layer>
		<layer id="56" name="Constant_316" type="Const" version="opset1">
			<data element_type="f32" shape="1" offset="3584" size="4"/>
			<rt_info>
				<attribute name="fused_names" version="0" value="Constant_316"/>
			</rt_info>
			<output>
				<port id="0" precision="FP32">
					<dim>1</dim>
				</port>
			</output>
		</layer>
		<layer id="57" name="model_1/leaky_re_lu_9/LeakyRelu:0" type="PReLU" version="opset1">
			<rt_info>
				<attribute name="fused_names" version="0" value="model_1/leaky_re_lu_9/LeakyRelu:0"/>
			</rt_info>
			<input>
				<port id="0" precision="FP32">
					<dim>1</dim>
					<dim>128</dim>
					<dim>104</dim>
					<dim>104</dim>
				</port>
				<port id="1" precision="FP32">
					<dim>1</dim>
				</port>
			</input>
			<output>
				<port id="2" precision="FP32" names="model_1/leaky_re_lu_9/LeakyRelu:0">
					<dim>1</dim>
					<dim>128</dim>
					<dim>104</dim>
					<dim>104</dim>
				</port>
			</output>
		</layer>
		<layer id="58" name="model_1/add_3/add:0" type="Add" version="opset1">
			<data auto_broadcast="numpy"/>
			<rt_info>
				<attribute name="fused_names" version="0" value="model_1/add_3/add:0"/>
			</rt_info>
			<input>
				<port id="0" precision="FP32">
					<dim>1</dim>
					<dim>128</dim>
					<dim>104</dim>
					<dim>104</dim>
				</port>
				<port id="1" precision="FP32">
					<dim>1</dim>
					<dim>128</dim>
					<dim>104</dim>
					<dim>104</dim>
				</port>
			</input>
			<output>
				<port id="2" precision="FP32" names="model_1/add_3/add:0">
					<dim>1</dim>
					<dim>128</dim>
					<dim>104</dim>
					<dim>104</dim>
				</port>
			</output>
		</layer>
		<layer id="59" name="Multiply_27306" type="Const" version="opset1">
			<data element_type="f32" shape="256, 128, 3, 3" offset="1112196" size="1179648"/>
			<output>
				<port id="0" precision="FP32">
					<dim>256</dim>
					<dim>128</dim>
					<dim>3</dim>
					<dim>3</dim>
				</port>
			</output>
		</layer>
		<layer id="60" name="Multiply_26771" type="Convolution" version="opset1">
			<data strides="2, 2" dilations="1, 1" pads_begin="1, 1" pads_end="0, 0" auto_pad="explicit"/>
			<rt_info>
				<attribute name="fused_names" version="0" value="batch_norm_output_buffer62, bias62, convolution_output65, mean6, scale62, var6"/>
			</rt_info>
			<input>
				<port id="0" precision="FP32">
					<dim>1</dim>
					<dim>128</dim>
					<dim>104</dim>
					<dim>104</dim>
				</port>
				<port id="1" precision="FP32">
					<dim>256</dim>
					<dim>128</dim>
					<dim>3</dim>
					<dim>3</dim>
				</port>
			</input>
			<output>
				<port id="2" precision="FP32">
					<dim>1</dim>
					<dim>256</dim>
					<dim>52</dim>
					<dim>52</dim>
				</port>
			</output>
		</layer>
		<layer id="61" name="Constant_26776" type="Const" version="opset1">
			<data element_type="f32" shape="1, 256, 1, 1" offset="2291844" size="1024"/>
			<output>
				<port id="0" precision="FP32">
					<dim>1</dim>
					<dim>256</dim>
					<dim>1</dim>
					<dim>1</dim>
				</port>
			</output>
		</layer>
		<layer id="62" name="batch_norm_output_buffer62" type="Add" version="opset1">
			<data auto_broadcast="numpy"/>
			<rt_info>
				<attribute name="fused_names" version="0" value="batch_norm_output_buffer62, bias62, mean6, scale62, var6"/>
			</rt_info>
			<input>
				<port id="0" precision="FP32">
					<dim>1</dim>
					<dim>256</dim>
					<dim>52</dim>
					<dim>52</dim>
				</port>
				<port id="1" precision="FP32">
					<dim>1</dim>
					<dim>256</dim>
					<dim>1</dim>
					<dim>1</dim>
				</port>
			</input>
			<output>
				<port id="2" precision="FP32" names="batch_norm_output_buffer62">
					<dim>1</dim>
					<dim>256</dim>
					<dim>52</dim>
					<dim>52</dim>
				</port>
			</output>
		</layer>
		<layer id="63" name="Constant_322" type="Const" version="opset1">
			<data element_type="f32" shape="1" offset="3584" size="4"/>
			<rt_info>
				<attribute name="fused_names" version="0" value="Constant_322"/>
			</rt_info>
			<output>
				<port id="0" precision="FP32">
					<dim>1</dim>
				</port>
			</output>
		</layer>
		<layer id="64" name="model_1/leaky_re_lu_10/LeakyRelu:0" type="PReLU" version="opset1">
			<rt_info>
				<attribute name="fused_names" version="0" value="model_1/leaky_re_lu_10/LeakyRelu:0"/>
			</rt_info>
			<input>
				<port id="0" precision="FP32">
					<dim>1</dim>
					<dim>256</dim>
					<dim>52</dim>
					<dim>52</dim>
				</port>
				<port id="1" precision="FP32">
					<dim>1</dim>
				</port>
			</input>
			<output>
				<port id="2" precision="FP32" names="model_1/leaky_re_lu_10/LeakyRelu:0">
					<dim>1</dim>
					<dim>256</dim>
					<dim>52</dim>
					<dim>52</dim>
				</port>
			</output>
		</layer>
		<layer id="65" name="Multiply_27315" type="Const" version="opset1">
			<data element_type="f32" shape="128, 256, 1, 1" offset="2292868" size="131072"/>
			<output>
				<port id="0" precision="FP32">
					<dim>128</dim>
					<dim>256</dim>
					<dim>1</dim>
					<dim>1</dim>
				</port>
			</output>
		</layer>
		<layer id="66" name="Multiply_26778" type="Convolution" version="opset1">
			<data strides="1, 1" dilations="1, 1" pads_begin="0, 0" pads_end="0, 0" auto_pad="same_upper"/>
			<rt_info>
				<attribute name="fused_names" version="0" value="batch_norm_output_buffer61, bias61, convolution_output64, mean7, scale61, var5"/>
			</rt_info>
			<input>
				<port id="0" precision="FP32">
					<dim>1</dim>
					<dim>256</dim>
					<dim>52</dim>
					<dim>52</dim>
				</port>
				<port id="1" precision="FP32">
					<dim>128</dim>
					<dim>256</dim>
					<dim>1</dim>
					<dim>1</dim>
				</port>
			</input>
			<output>
				<port id="2" precision="FP32">
					<dim>1</dim>
					<dim>128</dim>
					<dim>52</dim>
					<dim>52</dim>
				</port>
			</output>
		</layer>
		<layer id="67" name="Constant_26783" type="Const" version="opset1">
			<data element_type="f32" shape="1, 128, 1, 1" offset="2423940" size="512"/>
			<output>
				<port id="0" precision="FP32">
					<dim>1</dim>
					<dim>128</dim>
					<dim>1</dim>
					<dim>1</dim>
				</port>
			</output>
		</layer>
		<layer id="68" name="batch_norm_output_buffer61" type="Add" version="opset1">
			<data auto_broadcast="numpy"/>
			<rt_info>
				<attribute name="fused_names" version="0" value="batch_norm_output_buffer61, bias61, mean7, scale61, var5"/>
			</rt_info>
			<input>
				<port id="0" precision="FP32">
					<dim>1</dim>
					<dim>128</dim>
					<dim>52</dim>
					<dim>52</dim>
				</port>
				<port id="1" precision="FP32">
					<dim>1</dim>
					<dim>128</dim>
					<dim>1</dim>
					<dim>1</dim>
				</port>
			</input>
			<output>
				<port id="2" precision="FP32" names="batch_norm_output_buffer61">
					<dim>1</dim>
					<dim>128</dim>
					<dim>52</dim>
					<dim>52</dim>
				</port>
			</output>
		</layer>
		<layer id="69" name="Constant_327" type="Const" version="opset1">
			<data element_type="f32" shape="1" offset="3584" size="4"/>
			<rt_info>
				<attribute name="fused_names" version="0" value="Constant_327"/>
			</rt_info>
			<output>
				<port id="0" precision="FP32">
					<dim>1</dim>
				</port>
			</output>
		</layer>
		<layer id="70" name="model_1/leaky_re_lu_11/LeakyRelu:0" type="PReLU" version="opset1">
			<rt_info>
				<attribute name="fused_names" version="0" value="model_1/leaky_re_lu_11/LeakyRelu:0"/>
			</rt_info>
			<input>
				<port id="0" precision="FP32">
					<dim>1</dim>
					<dim>128</dim>
					<dim>52</dim>
					<dim>52</dim>
				</port>
				<port id="1" precision="FP32">
					<dim>1</dim>
				</port>
			</input>
			<output>
				<port id="2" precision="FP32" names="model_1/leaky_re_lu_11/LeakyRelu:0">
					<dim>1</dim>
					<dim>128</dim>
					<dim>52</dim>
					<dim>52</dim>
				</port>
			</output>
		</layer>
		<layer id="71" name="Multiply_27324" type="Const" version="opset1">
			<data element_type="f32" shape="256, 128, 3, 3" offset="2424452" size="1179648"/>
			<output>
				<port id="0" precision="FP32">
					<dim>256</dim>
					<dim>128</dim>
					<dim>3</dim>
					<dim>3</dim>
				</port>
			</output>
		</layer>
		<layer id="72" name="Multiply_26785" type="Convolution" version="opset1">
			<data strides="1, 1" dilations="1, 1" pads_begin="0, 0" pads_end="0, 0" auto_pad="same_upper"/>
			<rt_info>
				<attribute name="fused_names" version="0" value="batch_norm_output_buffer60, bias60, convolution_output63, mean6, scale60, var6"/>
			</rt_info>
			<input>
				<port id="0" precision="FP32">
					<dim>1</dim>
					<dim>128</dim>
					<dim>52</dim>
					<dim>52</dim>
				</port>
				<port id="1" precision="FP32">
					<dim>256</dim>
					<dim>128</dim>
					<dim>3</dim>
					<dim>3</dim>
				</port>
			</input>
			<output>
				<port id="2" precision="FP32">
					<dim>1</dim>
					<dim>256</dim>
					<dim>52</dim>
					<dim>52</dim>
				</port>
			</output>
		</layer>
		<layer id="73" name="Constant_26790" type="Const" version="opset1">
			<data element_type="f32" shape="1, 256, 1, 1" offset="3604100" size="1024"/>
			<output>
				<port id="0" precision="FP32">
					<dim>1</dim>
					<dim>256</dim>
					<dim>1</dim>
					<dim>1</dim>
				</port>
			</output>
		</layer>
		<layer id="74" name="batch_norm_output_buffer60" type="Add" version="opset1">
			<data auto_broadcast="numpy"/>
			<rt_info>
				<attribute name="fused_names" version="0" value="batch_norm_output_buffer60, bias60, mean6, scale60, var6"/>
			</rt_info>
			<input>
				<port id="0" precision="FP32">
					<dim>1</dim>
					<dim>256</dim>
					<dim>52</dim>
					<dim>52</dim>
				</port>
				<port id="1" precision="FP32">
					<dim>1</dim>
					<dim>256</dim>
					<dim>1</dim>
					<dim>1</dim>
				</port>
			</input>
			<output>
				<port id="2" precision="FP32" names="batch_norm_output_buffer60">
					<dim>1</dim>
					<dim>256</dim>
					<dim>52</dim>
					<dim>52</dim>
				</port>
			</output>
		</layer>
		<layer id="75" name="Constant_332" type="Const" version="opset1">
			<data element_type="f32" shape="1" offset="3584" size="4"/>
			<rt_info>
				<attribute name="fused_names" version="0" value="Constant_332"/>
			</rt_info>
			<output>
				<port id="0" precision="FP32">
					<dim>1</dim>
				</port>
			</output>
		</layer>
		<layer id="76" name="model_1/leaky_re_lu_12/LeakyRelu:0" type="PReLU" version="opset1">
			<rt_info>
				<attribute name="fused_names" version="0" value="model_1/leaky_re_lu_12/LeakyRelu:0"/>
			</rt_info>
			<input>
				<port id="0" precision="FP32">
					<dim>1</dim>
					<dim>256</dim>
					<dim>52</dim>
					<dim>52</dim>
				</port>
				<port id="1" precision="FP32">
					<dim>1</dim>
				</port>
			</input>
			<output>
				<port id="2" precision="FP32" names="model_1/leaky_re_lu_12/LeakyRelu:0">
					<dim>1</dim>
					<dim>256</dim>
					<dim>52</dim>
					<dim>52</dim>
				</port>
			</output>
		</layer>
		<layer id="77" name="model_1/add_4/add:0" type="Add" version="opset1">
			<data auto_broadcast="numpy"/>
			<rt_info>
				<attribute name="fused_names" version="0" value="model_1/add_4/add:0"/>
			</rt_info>
			<input>
				<port id="0" precision="FP32">
					<dim>1</dim>
					<dim>256</dim>
					<dim>52</dim>
					<dim>52</dim>
				</port>
				<port id="1" precision="FP32">
					<dim>1</dim>
					<dim>256</dim>
					<dim>52</dim>
					<dim>52</dim>
				</port>
			</input>
			<output>
				<port id="2" precision="FP32" names="model_1/add_4/add:0">
					<dim>1</dim>
					<dim>256</dim>
					<dim>52</dim>
					<dim>52</dim>
				</port>
			</output>
		</layer>
		<layer id="78" name="Multiply_27333" type="Const" version="opset1">
			<data element_type="f32" shape="128, 256, 1, 1" offset="3605124" size="131072"/>
			<output>
				<port id="0" precision="FP32">
					<dim>128</dim>
					<dim>256</dim>
					<dim>1</dim>
					<dim>1</dim>
				</port>
			</output>
		</layer>
		<layer id="79" name="Multiply_26792" type="Convolution" version="opset1">
			<data strides="1, 1" dilations="1, 1" pads_begin="0, 0" pads_end="0, 0" auto_pad="same_upper"/>
			<rt_info>
				<attribute name="fused_names" version="0" value="batch_norm_output_buffer59, bias59, convolution_output62, mean7, scale59, var5"/>
			</rt_info>
			<input>
				<port id="0" precision="FP32">
					<dim>1</dim>
					<dim>256</dim>
					<dim>52</dim>
					<dim>52</dim>
				</port>
				<port id="1" precision="FP32">
					<dim>128</dim>
					<dim>256</dim>
					<dim>1</dim>
					<dim>1</dim>
				</port>
			</input>
			<output>
				<port id="2" precision="FP32">
					<dim>1</dim>
					<dim>128</dim>
					<dim>52</dim>
					<dim>52</dim>
				</port>
			</output>
		</layer>
		<layer id="80" name="Constant_26797" type="Const" version="opset1">
			<data element_type="f32" shape="1, 128, 1, 1" offset="3736196" size="512"/>
			<output>
				<port id="0" precision="FP32">
					<dim>1</dim>
					<dim>128</dim>
					<dim>1</dim>
					<dim>1</dim>
				</port>
			</output>
		</layer>
		<layer id="81" name="batch_norm_output_buffer59" type="Add" version="opset1">
			<data auto_broadcast="numpy"/>
			<rt_info>
				<attribute name="fused_names" version="0" value="batch_norm_output_buffer59, bias59, mean7, scale59, var5"/>
			</rt_info>
			<input>
				<port id="0" precision="FP32">
					<dim>1</dim>
					<dim>128</dim>
					<dim>52</dim>
					<dim>52</dim>
				</port>
				<port id="1" precision="FP32">
					<dim>1</dim>
					<dim>128</dim>
					<dim>1</dim>
					<dim>1</dim>
				</port>
			</input>
			<output>
				<port id="2" precision="FP32" names="batch_norm_output_buffer59">
					<dim>1</dim>
					<dim>128</dim>
					<dim>52</dim>
					<dim>52</dim>
				</port>
			</output>
		</layer>
		<layer id="82" name="Constant_338" type="Const" version="opset1">
			<data element_type="f32" shape="1" offset="3584" size="4"/>
			<rt_info>
				<attribute name="fused_names" version="0" value="Constant_338"/>
			</rt_info>
			<output>
				<port id="0" precision="FP32">
					<dim>1</dim>
				</port>
			</output>
		</layer>
		<layer id="83" name="model_1/leaky_re_lu_13/LeakyRelu:0" type="PReLU" version="opset1">
			<rt_info>
				<attribute name="fused_names" version="0" value="model_1/leaky_re_lu_13/LeakyRelu:0"/>
			</rt_info>
			<input>
				<port id="0" precision="FP32">
					<dim>1</dim>
					<dim>128</dim>
					<dim>52</dim>
					<dim>52</dim>
				</port>
				<port id="1" precision="FP32">
					<dim>1</dim>
				</port>
			</input>
			<output>
				<port id="2" precision="FP32" names="model_1/leaky_re_lu_13/LeakyRelu:0">
					<dim>1</dim>
					<dim>128</dim>
					<dim>52</dim>
					<dim>52</dim>
				</port>
			</output>
		</layer>
		<layer id="84" name="Multiply_27342" type="Const" version="opset1">
			<data element_type="f32" shape="256, 128, 3, 3" offset="3736708" size="1179648"/>
			<output>
				<port id="0" precision="FP32">
					<dim>256</dim>
					<dim>128</dim>
					<dim>3</dim>
					<dim>3</dim>
				</port>
			</output>
		</layer>
		<layer id="85" name="Multiply_26799" type="Convolution" version="opset1">
			<data strides="1, 1" dilations="1, 1" pads_begin="0, 0" pads_end="0, 0" auto_pad="same_upper"/>
			<rt_info>
				<attribute name="fused_names" version="0" value="batch_norm_output_buffer58, bias58, convolution_output61, mean6, scale58, var6"/>
			</rt_info>
			<input>
				<port id="0" precision="FP32">
					<dim>1</dim>
					<dim>128</dim>
					<dim>52</dim>
					<dim>52</dim>
				</port>
				<port id="1" precision="FP32">
					<dim>256</dim>
					<dim>128</dim>
					<dim>3</dim>
					<dim>3</dim>
				</port>
			</input>
			<output>
				<port id="2" precision="FP32">
					<dim>1</dim>
					<dim>256</dim>
					<dim>52</dim>
					<dim>52</dim>
				</port>
			</output>
		</layer>
		<layer id="86" name="Constant_26804" type="Const" version="opset1">
			<data element_type="f32" shape="1, 256, 1, 1" offset="4916356" size="1024"/>
			<output>
				<port id="0" precision="FP32">
					<dim>1</dim>
					<dim>256</dim>
					<dim>1</dim>
					<dim>1</dim>
				</port>
			</output>
		</layer>
		<layer id="87" name="batch_norm_output_buffer58" type="Add" version="opset1">
			<data auto_broadcast="numpy"/>
			<rt_info>
				<attribute name="fused_names" version="0" value="batch_norm_output_buffer58, bias58, mean6, scale58, var6"/>
			</rt_info>
			<input>
				<port id="0" precision="FP32">
					<dim>1</dim>
					<dim>256</dim>
					<dim>52</dim>
					<dim>52</dim>
				</port>
				<port id="1" precision="FP32">
					<dim>1</dim>
					<dim>256</dim>
					<dim>1</dim>
					<dim>1</dim>
				</port>
			</input>
			<output>
				<port id="2" precision="FP32" names="batch_norm_output_buffer58">
					<dim>1</dim>
					<dim>256</dim>
					<dim>52</dim>
					<dim>52</dim>
				</port>
			</output>
		</layer>
		<layer id="88" name="Constant_343" type="Const" version="opset1">
			<data element_type="f32" shape="1" offset="3584" size="4"/>
			<rt_info>
				<attribute name="fused_names" version="0" value="Constant_343"/>
			</rt_info>
			<output>
				<port id="0" precision="FP32">
					<dim>1</dim>
				</port>
			</output>
		</layer>
		<layer id="89" name="model_1/leaky_re_lu_14/LeakyRelu:0" type="PReLU" version="opset1">
			<rt_info>
				<attribute name="fused_names" version="0" value="model_1/leaky_re_lu_14/LeakyRelu:0"/>
			</rt_info>
			<input>
				<port id="0" precision="FP32">
					<dim>1</dim>
					<dim>256</dim>
					<dim>52</dim>
					<dim>52</dim>
				</port>
				<port id="1" precision="FP32">
					<dim>1</dim>
				</port>
			</input>
			<output>
				<port id="2" precision="FP32" names="model_1/leaky_re_lu_14/LeakyRelu:0">
					<dim>1</dim>
					<dim>256</dim>
					<dim>52</dim>
					<dim>52</dim>
				</port>
			</output>
		</layer>
		<layer id="90" name="model_1/add_5/add:0" type="Add" version="opset1">
			<data auto_broadcast="numpy"/>
			<rt_info>
				<attribute name="fused_names" version="0" value="model_1/add_5/add:0"/>
			</rt_info>
			<input>
				<port id="0" precision="FP32">
					<dim>1</dim>
					<dim>256</dim>
					<dim>52</dim>
					<dim>52</dim>
				</port>
				<port id="1" precision="FP32">
					<dim>1</dim>
					<dim>256</dim>
					<dim>52</dim>
					<dim>52</dim>
				</port>
			</input>
			<output>
				<port id="2" precision="FP32" names="model_1/add_5/add:0">
					<dim>1</dim>
					<dim>256</dim>
					<dim>52</dim>
					<dim>52</dim>
				</port>
			</output>
		</layer>
		<layer id="91" name="Multiply_27351" type="Const" version="opset1">
			<data element_type="f32" shape="128, 256, 1, 1" offset="4917380" size="131072"/>
			<output>
				<port id="0" precision="FP32">
					<dim>128</dim>
					<dim>256</dim>
					<dim>1</dim>
					<dim>1</dim>
				</port>
			</output>
		</layer>
		<layer id="92" name="Multiply_26806" type="Convolution" version="opset1">
			<data strides="1, 1" dilations="1, 1" pads_begin="0, 0" pads_end="0, 0" auto_pad="same_upper"/>
			<rt_info>
				<attribute name="fused_names" version="0" value="batch_norm_output_buffer57, bias57, convolution_output60, mean7, scale57, var5"/>
			</rt_info>
			<input>
				<port id="0" precision="FP32">
					<dim>1</dim>
					<dim>256</dim>
					<dim>52</dim>
					<dim>52</dim>
				</port>
				<port id="1" precision="FP32">
					<dim>128</dim>
					<dim>256</dim>
					<dim>1</dim>
					<dim>1</dim>
				</port>
			</input>
			<output>
				<port id="2" precision="FP32">
					<dim>1</dim>
					<dim>128</dim>
					<dim>52</dim>
					<dim>52</dim>
				</port>
			</output>
		</layer>
		<layer id="93" name="Constant_26811" type="Const" version="opset1">
			<data element_type="f32" shape="1, 128, 1, 1" offset="5048452" size="512"/>
			<output>
				<port id="0" precision="FP32">
					<dim>1</dim>
					<dim>128</dim>
					<dim>1</dim>
					<dim>1</dim>
				</port>
			</output>
		</layer>
		<layer id="94" name="batch_norm_output_buffer57" type="Add" version="opset1">
			<data auto_broadcast="numpy"/>
			<rt_info>
				<attribute name="fused_names" version="0" value="batch_norm_output_buffer57, bias57, mean7, scale57, var5"/>
			</rt_info>
			<input>
				<port id="0" precision="FP32">
					<dim>1</dim>
					<dim>128</dim>
					<dim>52</dim>
					<dim>52</dim>
				</port>
				<port id="1" precision="FP32">
					<dim>1</dim>
					<dim>128</dim>
					<dim>1</dim>
					<dim>1</dim>
				</port>
			</input>
			<output>
				<port id="2" precision="FP32" names="batch_norm_output_buffer57">
					<dim>1</dim>
					<dim>128</dim>
					<dim>52</dim>
					<dim>52</dim>
				</port>
			</output>
		</layer>
		<layer id="95" name="Constant_349" type="Const" version="opset1">
			<data element_type="f32" shape="1" offset="3584" size="4"/>
			<rt_info>
				<attribute name="fused_names" version="0" value="Constant_349"/>
			</rt_info>
			<output>
				<port id="0" precision="FP32">
					<dim>1</dim>
				</port>
			</output>
		</layer>
		<layer id="96" name="model_1/leaky_re_lu_15/LeakyRelu:0" type="PReLU" version="opset1">
			<rt_info>
				<attribute name="fused_names" version="0" value="model_1/leaky_re_lu_15/LeakyRelu:0"/>
			</rt_info>
			<input>
				<port id="0" precision="FP32">
					<dim>1</dim>
					<dim>128</dim>
					<dim>52</dim>
					<dim>52</dim>
				</port>
				<port id="1" precision="FP32">
					<dim>1</dim>
				</port>
			</input>
			<output>
				<port id="2" precision="FP32" names="model_1/leaky_re_lu_15/LeakyRelu:0">
					<dim>1</dim>
					<dim>128</dim>
					<dim>52</dim>
					<dim>52</dim>
				</port>
			</output>
		</layer>
		<layer id="97" name="Multiply_27360" type="Const" version="opset1">
			<data element_type="f32" shape="256, 128, 3, 3" offset="5048964" size="1179648"/>
			<output>
				<port id="0" precision="FP32">
					<dim>256</dim>
					<dim>128</dim>
					<dim>3</dim>
					<dim>3</dim>
				</port>
			</output>
		</layer>
		<layer id="98" name="Multiply_26813" type="Convolution" version="opset1">
			<data strides="1, 1" dilations="1, 1" pads_begin="0, 0" pads_end="0, 0" auto_pad="same_upper"/>
			<rt_info>
				<attribute name="fused_names" version="0" value="batch_norm_output_buffer56, bias56, convolution_output59, mean6, scale56, var6"/>
			</rt_info>
			<input>
				<port id="0" precision="FP32">
					<dim>1</dim>
					<dim>128</dim>
					<dim>52</dim>
					<dim>52</dim>
				</port>
				<port id="1" precision="FP32">
					<dim>256</dim>
					<dim>128</dim>
					<dim>3</dim>
					<dim>3</dim>
				</port>
			</input>
			<output>
				<port id="2" precision="FP32">
					<dim>1</dim>
					<dim>256</dim>
					<dim>52</dim>
					<dim>52</dim>
				</port>
			</output>
		</layer>
		<layer id="99" name="Constant_26818" type="Const" version="opset1">
			<data element_type="f32" shape="1, 256, 1, 1" offset="6228612" size="1024"/>
			<output>
				<port id="0" precision="FP32">
					<dim>1</dim>
					<dim>256</dim>
					<dim>1</dim>
					<dim>1</dim>
				</port>
			</output>
		</layer>
		<layer id="100" name="batch_norm_output_buffer56" type="Add" version="opset1">
			<data auto_broadcast="numpy"/>
			<rt_info>
				<attribute name="fused_names" version="0" value="batch_norm_output_buffer56, bias56, mean6, scale56, var6"/>
			</rt_info>
			<input>
				<port id="0" precision="FP32">
					<dim>1</dim>
					<dim>256</dim>
					<dim>52</dim>
					<dim>52</dim>
				</port>
				<port id="1" precision="FP32">
					<dim>1</dim>
					<dim>256</dim>
					<dim>1</dim>
					<dim>1</dim>
				</port>
			</input>
			<output>
				<port id="2" precision="FP32" names="batch_norm_output_buffer56">
					<dim>1</dim>
					<dim>256</dim>
					<dim>52</dim>
					<dim>52</dim>
				</port>
			</output>
		</layer>
		<layer id="101" name="Constant_354" type="Const" version="opset1">
			<data element_type="f32" shape="1" offset="3584" size="4"/>
			<rt_info>
				<attribute name="fused_names" version="0" value="Constant_354"/>
			</rt_info>
			<output>
				<port id="0" precision="FP32">
					<dim>1</dim>
				</port>
			</output>
		</layer>
		<layer id="102" name="model_1/leaky_re_lu_16/LeakyRelu:0" type="PReLU" version="opset1">
			<rt_info>
				<attribute name="fused_names" version="0" value="model_1/leaky_re_lu_16/LeakyRelu:0"/>
			</rt_info>
			<input>
				<port id="0" precision="FP32">
					<dim>1</dim>
					<dim>256</dim>
					<dim>52</dim>
					<dim>52</dim>
				</port>
				<port id="1" precision="FP32">
					<dim>1</dim>
				</port>
			</input>
			<output>
				<port id="2" precision="FP32" names="model_1/leaky_re_lu_16/LeakyRelu:0">
					<dim>1</dim>
					<dim>256</dim>
					<dim>52</dim>
					<dim>52</dim>
				</port>
			</output>
		</layer>
		<layer id="103" name="model_1/add_6/add:0" type="Add" version="opset1">
			<data auto_broadcast="numpy"/>
			<rt_info>
				<attribute name="fused_names" version="0" value="model_1/add_6/add:0"/>
			</rt_info>
			<input>
				<port id="0" precision="FP32">
					<dim>1</dim>
					<dim>256</dim>
					<dim>52</dim>
					<dim>52</dim>
				</port>
				<port id="1" precision="FP32">
					<dim>1</dim>
					<dim>256</dim>
					<dim>52</dim>
					<dim>52</dim>
				</port>
			</input>
			<output>
				<port id="2" precision="FP32" names="model_1/add_6/add:0">
					<dim>1</dim>
					<dim>256</dim>
					<dim>52</dim>
					<dim>52</dim>
				</port>
			</output>
		</layer>
		<layer id="104" name="Multiply_27369" type="Const" version="opset1">
			<data element_type="f32" shape="128, 256, 1, 1" offset="6229636" size="131072"/>
			<output>
				<port id="0" precision="FP32">
					<dim>128</dim>
					<dim>256</dim>
					<dim>1</dim>
					<dim>1</dim>
				</port>
			</output>
		</layer>
		<layer id="105" name="Multiply_26820" type="Convolution" version="opset1">
			<data strides="1, 1" dilations="1, 1" pads_begin="0, 0" pads_end="0, 0" auto_pad="same_upper"/>
			<rt_info>
				<attribute name="fused_names" version="0" value="batch_norm_output_buffer55, bias55, convolution_output58, mean7, scale55, var5"/>
			</rt_info>
			<input>
				<port id="0" precision="FP32">
					<dim>1</dim>
					<dim>256</dim>
					<dim>52</dim>
					<dim>52</dim>
				</port>
				<port id="1" precision="FP32">
					<dim>128</dim>
					<dim>256</dim>
					<dim>1</dim>
					<dim>1</dim>
				</port>
			</input>
			<output>
				<port id="2" precision="FP32">
					<dim>1</dim>
					<dim>128</dim>
					<dim>52</dim>
					<dim>52</dim>
				</port>
			</output>
		</layer>
		<layer id="106" name="Constant_26825" type="Const" version="opset1">
			<data element_type="f32" shape="1, 128, 1, 1" offset="6360708" size="512"/>
			<output>
				<port id="0" precision="FP32">
					<dim>1</dim>
					<dim>128</dim>
					<dim>1</dim>
					<dim>1</dim>
				</port>
			</output>
		</layer>
		<layer id="107" name="batch_norm_output_buffer55" type="Add" version="opset1">
			<data auto_broadcast="numpy"/>
			<rt_info>
				<attribute name="fused_names" version="0" value="batch_norm_output_buffer55, bias55, mean7, scale55, var5"/>
			</rt_info>
			<input>
				<port id="0" precision="FP32">
					<dim>1</dim>
					<dim>128</dim>
					<dim>52</dim>
					<dim>52</dim>
				</port>
				<port id="1" precision="FP32">
					<dim>1</dim>
					<dim>128</dim>
					<dim>1</dim>
					<dim>1</dim>
				</port>
			</input>
			<output>
				<port id="2" precision="FP32" names="batch_norm_output_buffer55">
					<dim>1</dim>
					<dim>128</dim>
					<dim>52</dim>
					<dim>52</dim>
				</port>
			</output>
		</layer>
		<layer id="108" name="Constant_360" type="Const" version="opset1">
			<data element_type="f32" shape="1" offset="3584" size="4"/>
			<rt_info>
				<attribute name="fused_names" version="0" value="Constant_360"/>
			</rt_info>
			<output>
				<port id="0" precision="FP32">
					<dim>1</dim>
				</port>
			</output>
		</layer>
		<layer id="109" name="model_1/leaky_re_lu_17/LeakyRelu:0" type="PReLU" version="opset1">
			<rt_info>
				<attribute name="fused_names" version="0" value="model_1/leaky_re_lu_17/LeakyRelu:0"/>
			</rt_info>
			<input>
				<port id="0" precision="FP32">
					<dim>1</dim>
					<dim>128</dim>
					<dim>52</dim>
					<dim>52</dim>
				</port>
				<port id="1" precision="FP32">
					<dim>1</dim>
				</port>
			</input>
			<output>
				<port id="2" precision="FP32" names="model_1/leaky_re_lu_17/LeakyRelu:0">
					<dim>1</dim>
					<dim>128</dim>
					<dim>52</dim>
					<dim>52</dim>
				</port>
			</output>
		</layer>
		<layer id="110" name="Multiply_27378" type="Const" version="opset1">
			<data element_type="f32" shape="256, 128, 3, 3" offset="6361220" size="1179648"/>
			<output>
				<port id="0" precision="FP32">
					<dim>256</dim>
					<dim>128</dim>
					<dim>3</dim>
					<dim>3</dim>
				</port>
			</output>
		</layer>
		<layer id="111" name="Multiply_26827" type="Convolution" version="opset1">
			<data strides="1, 1" dilations="1, 1" pads_begin="0, 0" pads_end="0, 0" auto_pad="same_upper"/>
			<rt_info>
				<attribute name="fused_names" version="0" value="batch_norm_output_buffer54, bias54, convolution_output57, mean6, scale54, var6"/>
			</rt_info>
			<input>
				<port id="0" precision="FP32">
					<dim>1</dim>
					<dim>128</dim>
					<dim>52</dim>
					<dim>52</dim>
				</port>
				<port id="1" precision="FP32">
					<dim>256</dim>
					<dim>128</dim>
					<dim>3</dim>
					<dim>3</dim>
				</port>
			</input>
			<output>
				<port id="2" precision="FP32">
					<dim>1</dim>
					<dim>256</dim>
					<dim>52</dim>
					<dim>52</dim>
				</port>
			</output>
		</layer>
		<layer id="112" name="Constant_26832" type="Const" version="opset1">
			<data element_type="f32" shape="1, 256, 1, 1" offset="7540868" size="1024"/>
			<output>
				<port id="0" precision="FP32">
					<dim>1</dim>
					<dim>256</dim>
					<dim>1</dim>
					<dim>1</dim>
				</port>
			</output>
		</layer>
		<layer id="113" name="batch_norm_output_buffer54" type="Add" version="opset1">
			<data auto_broadcast="numpy"/>
			<rt_info>
				<attribute name="fused_names" version="0" value="batch_norm_output_buffer54, bias54, mean6, scale54, var6"/>
			</rt_info>
			<input>
				<port id="0" precision="FP32">
					<dim>1</dim>
					<dim>256</dim>
					<dim>52</dim>
					<dim>52</dim>
				</port>
				<port id="1" precision="FP32">
					<dim>1</dim>
					<dim>256</dim>
					<dim>1</dim>
					<dim>1</dim>
				</port>
			</input>
			<output>
				<port id="2" precision="FP32" names="batch_norm_output_buffer54">
					<dim>1</dim>
					<dim>256</dim>
					<dim>52</dim>
					<dim>52</dim>
				</port>
			</output>
		</layer>
		<layer id="114" name="Constant_365" type="Const" version="opset1">
			<data element_type="f32" shape="1" offset="3584" size="4"/>
			<rt_info>
				<attribute name="fused_names" version="0" value="Constant_365"/>
			</rt_info>
			<output>
				<port id="0" precision="FP32">
					<dim>1</dim>
				</port>
			</output>
		</layer>
		<layer id="115" name="model_1/leaky_re_lu_18/LeakyRelu:0" type="PReLU" version="opset1">
			<rt_info>
				<attribute name="fused_names" version="0" value="model_1/leaky_re_lu_18/LeakyRelu:0"/>
			</rt_info>
			<input>
				<port id="0" precision="FP32">
					<dim>1</dim>
					<dim>256</dim>
					<dim>52</dim>
					<dim>52</dim>
				</port>
				<port id="1" precision="FP32">
					<dim>1</dim>
				</port>
			</input>
			<output>
				<port id="2" precision="FP32" names="model_1/leaky_re_lu_18/LeakyRelu:0">
					<dim>1</dim>
					<dim>256</dim>
					<dim>52</dim>
					<dim>52</dim>
				</port>
			</output>
		</layer>
		<layer id="116" name="model_1/add_7/add:0" type="Add" version="opset1">
			<data auto_broadcast="numpy"/>
			<rt_info>
				<attribute name="fused_names" version="0" value="model_1/add_7/add:0"/>
			</rt_info>
			<input>
				<port id="0" precision="FP32">
					<dim>1</dim>
					<dim>256</dim>
					<dim>52</dim>
					<dim>52</dim>
				</port>
				<port id="1" precision="FP32">
					<dim>1</dim>
					<dim>256</dim>
					<dim>52</dim>
					<dim>52</dim>
				</port>
			</input>
			<output>
				<port id="2" precision="FP32" names="model_1/add_7/add:0">
					<dim>1</dim>
					<dim>256</dim>
					<dim>52</dim>
					<dim>52</dim>
				</port>
			</output>
		</layer>
		<layer id="117" name="Multiply_27387" type="Const" version="opset1">
			<data element_type="f32" shape="128, 256, 1, 1" offset="7541892" size="131072"/>
			<output>
				<port id="0" precision="FP32">
					<dim>128</dim>
					<dim>256</dim>
					<dim>1</dim>
					<dim>1</dim>
				</port>
			</output>
		</layer>
		<layer id="118" name="Multiply_26834" type="Convolution" version="opset1">
			<data strides="1, 1" dilations="1, 1" pads_begin="0, 0" pads_end="0, 0" auto_pad="same_upper"/>
			<rt_info>
				<attribute name="fused_names" version="0" value="batch_norm_output_buffer53, bias53, convolution_output56, mean7, scale53, var5"/>
			</rt_info>
			<input>
				<port id="0" precision="FP32">
					<dim>1</dim>
					<dim>256</dim>
					<dim>52</dim>
					<dim>52</dim>
				</port>
				<port id="1" precision="FP32">
					<dim>128</dim>
					<dim>256</dim>
					<dim>1</dim>
					<dim>1</dim>
				</port>
			</input>
			<output>
				<port id="2" precision="FP32">
					<dim>1</dim>
					<dim>128</dim>
					<dim>52</dim>
					<dim>52</dim>
				</port>
			</output>
		</layer>
		<layer id="119" name="Constant_26839" type="Const" version="opset1">
			<data element_type="f32" shape="1, 128, 1, 1" offset="7672964" size="512"/>
			<output>
				<port id="0" precision="FP32">
					<dim>1</dim>
					<dim>128</dim>
					<dim>1</dim>
					<dim>1</dim>
				</port>
			</output>
		</layer>
		<layer id="120" name="batch_norm_output_buffer53" type="Add" version="opset1">
			<data auto_broadcast="numpy"/>
			<rt_info>
				<attribute name="fused_names" version="0" value="batch_norm_output_buffer53, bias53, mean7, scale53, var5"/>
			</rt_info>
			<input>
				<port id="0" precision="FP32">
					<dim>1</dim>
					<dim>128</dim>
					<dim>52</dim>
					<dim>52</dim>
				</port>
				<port id="1" precision="FP32">
					<dim>1</dim>
					<dim>128</dim>
					<dim>1</dim>
					<dim>1</dim>
				</port>
			</input>
			<output>
				<port id="2" precision="FP32" names="batch_norm_output_buffer53">
					<dim>1</dim>
					<dim>128</dim>
					<dim>52</dim>
					<dim>52</dim>
				</port>
			</output>
		</layer>
		<layer id="121" name="Constant_371" type="Const" version="opset1">
			<data element_type="f32" shape="1" offset="3584" size="4"/>
			<rt_info>
				<attribute name="fused_names" version="0" value="Constant_371"/>
			</rt_info>
			<output>
				<port id="0" precision="FP32">
					<dim>1</dim>
				</port>
			</output>
		</layer>
		<layer id="122" name="model_1/leaky_re_lu_19/LeakyRelu:0" type="PReLU" version="opset1">
			<rt_info>
				<attribute name="fused_names" version="0" value="model_1/leaky_re_lu_19/LeakyRelu:0"/>
			</rt_info>
			<input>
				<port id="0" precision="FP32">
					<dim>1</dim>
					<dim>128</dim>
					<dim>52</dim>
					<dim>52</dim>
				</port>
				<port id="1" precision="FP32">
					<dim>1</dim>
				</port>
			</input>
			<output>
				<port id="2" precision="FP32" names="model_1/leaky_re_lu_19/LeakyRelu:0">
					<dim>1</dim>
					<dim>128</dim>
					<dim>52</dim>
					<dim>52</dim>
				</port>
			</output>
		</layer>
		<layer id="123" name="Multiply_27396" type="Const" version="opset1">
			<data element_type="f32" shape="256, 128, 3, 3" offset="7673476" size="1179648"/>
			<output>
				<port id="0" precision="FP32">
					<dim>256</dim>
					<dim>128</dim>
					<dim>3</dim>
					<dim>3</dim>
				</port>
			</output>
		</layer>
		<layer id="124" name="Multiply_26841" type="Convolution" version="opset1">
			<data strides="1, 1" dilations="1, 1" pads_begin="0, 0" pads_end="0, 0" auto_pad="same_upper"/>
			<rt_info>
				<attribute name="fused_names" version="0" value="batch_norm_output_buffer52, bias52, convolution_output55, mean6, scale52, var6"/>
			</rt_info>
			<input>
				<port id="0" precision="FP32">
					<dim>1</dim>
					<dim>128</dim>
					<dim>52</dim>
					<dim>52</dim>
				</port>
				<port id="1" precision="FP32">
					<dim>256</dim>
					<dim>128</dim>
					<dim>3</dim>
					<dim>3</dim>
				</port>
			</input>
			<output>
				<port id="2" precision="FP32">
					<dim>1</dim>
					<dim>256</dim>
					<dim>52</dim>
					<dim>52</dim>
				</port>
			</output>
		</layer>
		<layer id="125" name="Constant_26846" type="Const" version="opset1">
			<data element_type="f32" shape="1, 256, 1, 1" offset="8853124" size="1024"/>
			<output>
				<port id="0" precision="FP32">
					<dim>1</dim>
					<dim>256</dim>
					<dim>1</dim>
					<dim>1</dim>
				</port>
			</output>
		</layer>
		<layer id="126" name="batch_norm_output_buffer52" type="Add" version="opset1">
			<data auto_broadcast="numpy"/>
			<rt_info>
				<attribute name="fused_names" version="0" value="batch_norm_output_buffer52, bias52, mean6, scale52, var6"/>
			</rt_info>
			<input>
				<port id="0" precision="FP32">
					<dim>1</dim>
					<dim>256</dim>
					<dim>52</dim>
					<dim>52</dim>
				</port>
				<port id="1" precision="FP32">
					<dim>1</dim>
					<dim>256</dim>
					<dim>1</dim>
					<dim>1</dim>
				</port>
			</input>
			<output>
				<port id="2" precision="FP32" names="batch_norm_output_buffer52">
					<dim>1</dim>
					<dim>256</dim>
					<dim>52</dim>
					<dim>52</dim>
				</port>
			</output>
		</layer>
		<layer id="127" name="Constant_376" type="Const" version="opset1">
			<data element_type="f32" shape="1" offset="3584" size="4"/>
			<rt_info>
				<attribute name="fused_names" version="0" value="Constant_376"/>
			</rt_info>
			<output>
				<port id="0" precision="FP32">
					<dim>1</dim>
				</port>
			</output>
		</layer>
		<layer id="128" name="model_1/leaky_re_lu_20/LeakyRelu:0" type="PReLU" version="opset1">
			<rt_info>
				<attribute name="fused_names" version="0" value="model_1/leaky_re_lu_20/LeakyRelu:0"/>
			</rt_info>
			<input>
				<port id="0" precision="FP32">
					<dim>1</dim>
					<dim>256</dim>
					<dim>52</dim>
					<dim>52</dim>
				</port>
				<port id="1" precision="FP32">
					<dim>1</dim>
				</port>
			</input>
			<output>
				<port id="2" precision="FP32" names="model_1/leaky_re_lu_20/LeakyRelu:0">
					<dim>1</dim>
					<dim>256</dim>
					<dim>52</dim>
					<dim>52</dim>
				</port>
			</output>
		</layer>
		<layer id="129" name="model_1/add_8/add:0" type="Add" version="opset1">
			<data auto_broadcast="numpy"/>
			<rt_info>
				<attribute name="fused_names" version="0" value="model_1/add_8/add:0"/>
			</rt_info>
			<input>
				<port id="0" precision="FP32">
					<dim>1</dim>
					<dim>256</dim>
					<dim>52</dim>
					<dim>52</dim>
				</port>
				<port id="1" precision="FP32">
					<dim>1</dim>
					<dim>256</dim>
					<dim>52</dim>
					<dim>52</dim>
				</port>
			</input>
			<output>
				<port id="2" precision="FP32" names="model_1/add_8/add:0">
					<dim>1</dim>
					<dim>256</dim>
					<dim>52</dim>
					<dim>52</dim>
				</port>
			</output>
		</layer>
		<layer id="130" name="Multiply_27405" type="Const" version="opset1">
			<data element_type="f32" shape="128, 256, 1, 1" offset="8854148" size="131072"/>
			<output>
				<port id="0" precision="FP32">
					<dim>128</dim>
					<dim>256</dim>
					<dim>1</dim>
					<dim>1</dim>
				</port>
			</output>
		</layer>
		<layer id="131" name="Multiply_26848" type="Convolution" version="opset1">
			<data strides="1, 1" dilations="1, 1" pads_begin="0, 0" pads_end="0, 0" auto_pad="same_upper"/>
			<rt_info>
				<attribute name="fused_names" version="0" value="batch_norm_output_buffer51, bias51, convolution_output54, mean7, scale51, var5"/>
			</rt_info>
			<input>
				<port id="0" precision="FP32">
					<dim>1</dim>
					<dim>256</dim>
					<dim>52</dim>
					<dim>52</dim>
				</port>
				<port id="1" precision="FP32">
					<dim>128</dim>
					<dim>256</dim>
					<dim>1</dim>
					<dim>1</dim>
				</port>
			</input>
			<output>
				<port id="2" precision="FP32">
					<dim>1</dim>
					<dim>128</dim>
					<dim>52</dim>
					<dim>52</dim>
				</port>
			</output>
		</layer>
		<layer id="132" name="Constant_26853" type="Const" version="opset1">
			<data element_type="f32" shape="1, 128, 1, 1" offset="8985220" size="512"/>
			<output>
				<port id="0" precision="FP32">
					<dim>1</dim>
					<dim>128</dim>
					<dim>1</dim>
					<dim>1</dim>
				</port>
			</output>
		</layer>
		<layer id="133" name="batch_norm_output_buffer51" type="Add" version="opset1">
			<data auto_broadcast="numpy"/>
			<rt_info>
				<attribute name="fused_names" version="0" value="batch_norm_output_buffer51, bias51, mean7, scale51, var5"/>
			</rt_info>
			<input>
				<port id="0" precision="FP32">
					<dim>1</dim>
					<dim>128</dim>
					<dim>52</dim>
					<dim>52</dim>
				</port>
				<port id="1" precision="FP32">
					<dim>1</dim>
					<dim>128</dim>
					<dim>1</dim>
					<dim>1</dim>
				</port>
			</input>
			<output>
				<port id="2" precision="FP32" names="batch_norm_output_buffer51">
					<dim>1</dim>
					<dim>128</dim>
					<dim>52</dim>
					<dim>52</dim>
				</port>
			</output>
		</layer>
		<layer id="134" name="Constant_382" type="Const" version="opset1">
			<data element_type="f32" shape="1" offset="3584" size="4"/>
			<rt_info>
				<attribute name="fused_names" version="0" value="Constant_382"/>
			</rt_info>
			<output>
				<port id="0" precision="FP32">
					<dim>1</dim>
				</port>
			</output>
		</layer>
		<layer id="135" name="model_1/leaky_re_lu_21/LeakyRelu:0" type="PReLU" version="opset1">
			<rt_info>
				<attribute name="fused_names" version="0" value="model_1/leaky_re_lu_21/LeakyRelu:0"/>
			</rt_info>
			<input>
				<port id="0" precision="FP32">
					<dim>1</dim>
					<dim>128</dim>
					<dim>52</dim>
					<dim>52</dim>
				</port>
				<port id="1" precision="FP32">
					<dim>1</dim>
				</port>
			</input>
			<output>
				<port id="2" precision="FP32" names="model_1/leaky_re_lu_21/LeakyRelu:0">
					<dim>1</dim>
					<dim>128</dim>
					<dim>52</dim>
					<dim>52</dim>
				</port>
			</output>
		</layer>
		<layer id="136" name="Multiply_27414" type="Const" version="opset1">
			<data element_type="f32" shape="256, 128, 3, 3" offset="8985732" size="1179648"/>
			<output>
				<port id="0" precision="FP32">
					<dim>256</dim>
					<dim>128</dim>
					<dim>3</dim>
					<dim>3</dim>
				</port>
			</output>
		</layer>
		<layer id="137" name="Multiply_26855" type="Convolution" version="opset1">
			<data strides="1, 1" dilations="1, 1" pads_begin="0, 0" pads_end="0, 0" auto_pad="same_upper"/>
			<rt_info>
				<attribute name="fused_names" version="0" value="batch_norm_output_buffer50, bias50, convolution_output53, mean6, scale50, var6"/>
			</rt_info>
			<input>
				<port id="0" precision="FP32">
					<dim>1</dim>
					<dim>128</dim>
					<dim>52</dim>
					<dim>52</dim>
				</port>
				<port id="1" precision="FP32">
					<dim>256</dim>
					<dim>128</dim>
					<dim>3</dim>
					<dim>3</dim>
				</port>
			</input>
			<output>
				<port id="2" precision="FP32">
					<dim>1</dim>
					<dim>256</dim>
					<dim>52</dim>
					<dim>52</dim>
				</port>
			</output>
		</layer>
		<layer id="138" name="Constant_26860" type="Const" version="opset1">
			<data element_type="f32" shape="1, 256, 1, 1" offset="10165380" size="1024"/>
			<output>
				<port id="0" precision="FP32">
					<dim>1</dim>
					<dim>256</dim>
					<dim>1</dim>
					<dim>1</dim>
				</port>
			</output>
		</layer>
		<layer id="139" name="batch_norm_output_buffer50" type="Add" version="opset1">
			<data auto_broadcast="numpy"/>
			<rt_info>
				<attribute name="fused_names" version="0" value="batch_norm_output_buffer50, bias50, mean6, scale50, var6"/>
			</rt_info>
			<input>
				<port id="0" precision="FP32">
					<dim>1</dim>
					<dim>256</dim>
					<dim>52</dim>
					<dim>52</dim>
				</port>
				<port id="1" precision="FP32">
					<dim>1</dim>
					<dim>256</dim>
					<dim>1</dim>
					<dim>1</dim>
				</port>
			</input>
			<output>
				<port id="2" precision="FP32" names="batch_norm_output_buffer50">
					<dim>1</dim>
					<dim>256</dim>
					<dim>52</dim>
					<dim>52</dim>
				</port>
			</output>
		</layer>
		<layer id="140" name="Constant_387" type="Const" version="opset1">
			<data element_type="f32" shape="1" offset="3584" size="4"/>
			<rt_info>
				<attribute name="fused_names" version="0" value="Constant_387"/>
			</rt_info>
			<output>
				<port id="0" precision="FP32">
					<dim>1</dim>
				</port>
			</output>
		</layer>
		<layer id="141" name="model_1/leaky_re_lu_22/LeakyRelu:0" type="PReLU" version="opset1">
			<rt_info>
				<attribute name="fused_names" version="0" value="model_1/leaky_re_lu_22/LeakyRelu:0"/>
			</rt_info>
			<input>
				<port id="0" precision="FP32">
					<dim>1</dim>
					<dim>256</dim>
					<dim>52</dim>
					<dim>52</dim>
				</port>
				<port id="1" precision="FP32">
					<dim>1</dim>
				</port>
			</input>
			<output>
				<port id="2" precision="FP32" names="model_1/leaky_re_lu_22/LeakyRelu:0">
					<dim>1</dim>
					<dim>256</dim>
					<dim>52</dim>
					<dim>52</dim>
				</port>
			</output>
		</layer>
		<layer id="142" name="model_1/add_9/add:0" type="Add" version="opset1">
			<data auto_broadcast="numpy"/>
			<rt_info>
				<attribute name="fused_names" version="0" value="model_1/add_9/add:0"/>
			</rt_info>
			<input>
				<port id="0" precision="FP32">
					<dim>1</dim>
					<dim>256</dim>
					<dim>52</dim>
					<dim>52</dim>
				</port>
				<port id="1" precision="FP32">
					<dim>1</dim>
					<dim>256</dim>
					<dim>52</dim>
					<dim>52</dim>
				</port>
			</input>
			<output>
				<port id="2" precision="FP32" names="model_1/add_9/add:0">
					<dim>1</dim>
					<dim>256</dim>
					<dim>52</dim>
					<dim>52</dim>
				</port>
			</output>
		</layer>
		<layer id="143" name="Multiply_27423" type="Const" version="opset1">
			<data element_type="f32" shape="128, 256, 1, 1" offset="10166404" size="131072"/>
			<output>
				<port id="0" precision="FP32">
					<dim>128</dim>
					<dim>256</dim>
					<dim>1</dim>
					<dim>1</dim>
				</port>
			</output>
		</layer>
		<layer id="144" name="Multiply_26862" type="Convolution" version="opset1">
			<data strides="1, 1" dilations="1, 1" pads_begin="0, 0" pads_end="0, 0" auto_pad="same_upper"/>
			<rt_info>
				<attribute name="fused_names" version="0" value="batch_norm_output_buffer49, bias49, convolution_output52, mean7, scale49, var5"/>
			</rt_info>
			<input>
				<port id="0" precision="FP32">
					<dim>1</dim>
					<dim>256</dim>
					<dim>52</dim>
					<dim>52</dim>
				</port>
				<port id="1" precision="FP32">
					<dim>128</dim>
					<dim>256</dim>
					<dim>1</dim>
					<dim>1</dim>
				</port>
			</input>
			<output>
				<port id="2" precision="FP32">
					<dim>1</dim>
					<dim>128</dim>
					<dim>52</dim>
					<dim>52</dim>
				</port>
			</output>
		</layer>
		<layer id="145" name="Constant_26867" type="Const" version="opset1">
			<data element_type="f32" shape="1, 128, 1, 1" offset="10297476" size="512"/>
			<output>
				<port id="0" precision="FP32">
					<dim>1</dim>
					<dim>128</dim>
					<dim>1</dim>
					<dim>1</dim>
				</port>
			</output>
		</layer>
		<layer id="146" name="batch_norm_output_buffer49" type="Add" version="opset1">
			<data auto_broadcast="numpy"/>
			<rt_info>
				<attribute name="fused_names" version="0" value="batch_norm_output_buffer49, bias49, mean7, scale49, var5"/>
			</rt_info>
			<input>
				<port id="0" precision="FP32">
					<dim>1</dim>
					<dim>128</dim>
					<dim>52</dim>
					<dim>52</dim>
				</port>
				<port id="1" precision="FP32">
					<dim>1</dim>
					<dim>128</dim>
					<dim>1</dim>
					<dim>1</dim>
				</port>
			</input>
			<output>
				<port id="2" precision="FP32" names="batch_norm_output_buffer49">
					<dim>1</dim>
					<dim>128</dim>
					<dim>52</dim>
					<dim>52</dim>
				</port>
			</output>
		</layer>
		<layer id="147" name="Constant_393" type="Const" version="opset1">
			<data element_type="f32" shape="1" offset="3584" size="4"/>
			<rt_info>
				<attribute name="fused_names" version="0" value="Constant_393"/>
			</rt_info>
			<output>
				<port id="0" precision="FP32">
					<dim>1</dim>
				</port>
			</output>
		</layer>
		<layer id="148" name="model_1/leaky_re_lu_23/LeakyRelu:0" type="PReLU" version="opset1">
			<rt_info>
				<attribute name="fused_names" version="0" value="model_1/leaky_re_lu_23/LeakyRelu:0"/>
			</rt_info>
			<input>
				<port id="0" precision="FP32">
					<dim>1</dim>
					<dim>128</dim>
					<dim>52</dim>
					<dim>52</dim>
				</port>
				<port id="1" precision="FP32">
					<dim>1</dim>
				</port>
			</input>
			<output>
				<port id="2" precision="FP32" names="model_1/leaky_re_lu_23/LeakyRelu:0">
					<dim>1</dim>
					<dim>128</dim>
					<dim>52</dim>
					<dim>52</dim>
				</port>
			</output>
		</layer>
		<layer id="149" name="Multiply_27432" type="Const" version="opset1">
			<data element_type="f32" shape="256, 128, 3, 3" offset="10297988" size="1179648"/>
			<output>
				<port id="0" precision="FP32">
					<dim>256</dim>
					<dim>128</dim>
					<dim>3</dim>
					<dim>3</dim>
				</port>
			</output>
		</layer>
		<layer id="150" name="Multiply_26869" type="Convolution" version="opset1">
			<data strides="1, 1" dilations="1, 1" pads_begin="0, 0" pads_end="0, 0" auto_pad="same_upper"/>
			<rt_info>
				<attribute name="fused_names" version="0" value="batch_norm_output_buffer48, bias48, convolution_output51, mean6, scale48, var6"/>
			</rt_info>
			<input>
				<port id="0" precision="FP32">
					<dim>1</dim>
					<dim>128</dim>
					<dim>52</dim>
					<dim>52</dim>
				</port>
				<port id="1" precision="FP32">
					<dim>256</dim>
					<dim>128</dim>
					<dim>3</dim>
					<dim>3</dim>
				</port>
			</input>
			<output>
				<port id="2" precision="FP32">
					<dim>1</dim>
					<dim>256</dim>
					<dim>52</dim>
					<dim>52</dim>
				</port>
			</output>
		</layer>
		<layer id="151" name="Constant_26874" type="Const" version="opset1">
			<data element_type="f32" shape="1, 256, 1, 1" offset="11477636" size="1024"/>
			<output>
				<port id="0" precision="FP32">
					<dim>1</dim>
					<dim>256</dim>
					<dim>1</dim>
					<dim>1</dim>
				</port>
			</output>
		</layer>
		<layer id="152" name="batch_norm_output_buffer48" type="Add" version="opset1">
			<data auto_broadcast="numpy"/>
			<rt_info>
				<attribute name="fused_names" version="0" value="batch_norm_output_buffer48, bias48, mean6, scale48, var6"/>
			</rt_info>
			<input>
				<port id="0" precision="FP32">
					<dim>1</dim>
					<dim>256</dim>
					<dim>52</dim>
					<dim>52</dim>
				</port>
				<port id="1" precision="FP32">
					<dim>1</dim>
					<dim>256</dim>
					<dim>1</dim>
					<dim>1</dim>
				</port>
			</input>
			<output>
				<port id="2" precision="FP32" names="batch_norm_output_buffer48">
					<dim>1</dim>
					<dim>256</dim>
					<dim>52</dim>
					<dim>52</dim>
				</port>
			</output>
		</layer>
		<layer id="153" name="Constant_398" type="Const" version="opset1">
			<data element_type="f32" shape="1" offset="3584" size="4"/>
			<rt_info>
				<attribute name="fused_names" version="0" value="Constant_398"/>
			</rt_info>
			<output>
				<port id="0" precision="FP32">
					<dim>1</dim>
				</port>
			</output>
		</layer>
		<layer id="154" name="model_1/leaky_re_lu_24/LeakyRelu:0" type="PReLU" version="opset1">
			<rt_info>
				<attribute name="fused_names" version="0" value="model_1/leaky_re_lu_24/LeakyRelu:0"/>
			</rt_info>
			<input>
				<port id="0" precision="FP32">
					<dim>1</dim>
					<dim>256</dim>
					<dim>52</dim>
					<dim>52</dim>
				</port>
				<port id="1" precision="FP32">
					<dim>1</dim>
				</port>
			</input>
			<output>
				<port id="2" precision="FP32" names="model_1/leaky_re_lu_24/LeakyRelu:0">
					<dim>1</dim>
					<dim>256</dim>
					<dim>52</dim>
					<dim>52</dim>
				</port>
			</output>
		</layer>
		<layer id="155" name="model_1/add_10/add:0" type="Add" version="opset1">
			<data auto_broadcast="numpy"/>
			<rt_info>
				<attribute name="fused_names" version="0" value="model_1/add_10/add:0"/>
			</rt_info>
			<input>
				<port id="0" precision="FP32">
					<dim>1</dim>
					<dim>256</dim>
					<dim>52</dim>
					<dim>52</dim>
				</port>
				<port id="1" precision="FP32">
					<dim>1</dim>
					<dim>256</dim>
					<dim>52</dim>
					<dim>52</dim>
				</port>
			</input>
			<output>
				<port id="2" precision="FP32" names="model_1/add_10/add:0">
					<dim>1</dim>
					<dim>256</dim>
					<dim>52</dim>
					<dim>52</dim>
				</port>
			</output>
		</layer>
		<layer id="156" name="Multiply_27441" type="Const" version="opset1">
			<data element_type="f32" shape="128, 256, 1, 1" offset="11478660" size="131072"/>
			<output>
				<port id="0" precision="FP32">
					<dim>128</dim>
					<dim>256</dim>
					<dim>1</dim>
					<dim>1</dim>
				</port>
			</output>
		</layer>
		<layer id="157" name="Multiply_26876" type="Convolution" version="opset1">
			<data strides="1, 1" dilations="1, 1" pads_begin="0, 0" pads_end="0, 0" auto_pad="same_upper"/>
			<rt_info>
				<attribute name="fused_names" version="0" value="batch_norm_output_buffer47, bias47, convolution_output50, mean7, scale47, var5"/>
			</rt_info>
			<input>
				<port id="0" precision="FP32">
					<dim>1</dim>
					<dim>256</dim>
					<dim>52</dim>
					<dim>52</dim>
				</port>
				<port id="1" precision="FP32">
					<dim>128</dim>
					<dim>256</dim>
					<dim>1</dim>
					<dim>1</dim>
				</port>
			</input>
			<output>
				<port id="2" precision="FP32">
					<dim>1</dim>
					<dim>128</dim>
					<dim>52</dim>
					<dim>52</dim>
				</port>
			</output>
		</layer>
		<layer id="158" name="Constant_26881" type="Const" version="opset1">
			<data element_type="f32" shape="1, 128, 1, 1" offset="11609732" size="512"/>
			<output>
				<port id="0" precision="FP32">
					<dim>1</dim>
					<dim>128</dim>
					<dim>1</dim>
					<dim>1</dim>
				</port>
			</output>
		</layer>
		<layer id="159" name="batch_norm_output_buffer47" type="Add" version="opset1">
			<data auto_broadcast="numpy"/>
			<rt_info>
				<attribute name="fused_names" version="0" value="batch_norm_output_buffer47, bias47, mean7, scale47, var5"/>
			</rt_info>
			<input>
				<port id="0" precision="FP32">
					<dim>1</dim>
					<dim>128</dim>
					<dim>52</dim>
					<dim>52</dim>
				</port>
				<port id="1" precision="FP32">
					<dim>1</dim>
					<dim>128</dim>
					<dim>1</dim>
					<dim>1</dim>
				</port>
			</input>
			<output>
				<port id="2" precision="FP32" names="batch_norm_output_buffer47">
					<dim>1</dim>
					<dim>128</dim>
					<dim>52</dim>
					<dim>52</dim>
				</port>
			</output>
		</layer>
		<layer id="160" name="Constant_404" type="Const" version="opset1">
			<data element_type="f32" shape="1" offset="3584" size="4"/>
			<rt_info>
				<attribute name="fused_names" version="0" value="Constant_404"/>
			</rt_info>
			<output>
				<port id="0" precision="FP32">
					<dim>1</dim>
				</port>
			</output>
		</layer>
		<layer id="161" name="model_1/leaky_re_lu_25/LeakyRelu:0" type="PReLU" version="opset1">
			<rt_info>
				<attribute name="fused_names" version="0" value="model_1/leaky_re_lu_25/LeakyRelu:0"/>
			</rt_info>
			<input>
				<port id="0" precision="FP32">
					<dim>1</dim>
					<dim>128</dim>
					<dim>52</dim>
					<dim>52</dim>
				</port>
				<port id="1" precision="FP32">
					<dim>1</dim>
				</port>
			</input>
			<output>
				<port id="2" precision="FP32" names="model_1/leaky_re_lu_25/LeakyRelu:0">
					<dim>1</dim>
					<dim>128</dim>
					<dim>52</dim>
					<dim>52</dim>
				</port>
			</output>
		</layer>
		<layer id="162" name="Multiply_27450" type="Const" version="opset1">
			<data element_type="f32" shape="256, 128, 3, 3" offset="11610244" size="1179648"/>
			<output>
				<port id="0" precision="FP32">
					<dim>256</dim>
					<dim>128</dim>
					<dim>3</dim>
					<dim>3</dim>
				</port>
			</output>
		</layer>
		<layer id="163" name="Multiply_26883" type="Convolution" version="opset1">
			<data strides="1, 1" dilations="1, 1" pads_begin="0, 0" pads_end="0, 0" auto_pad="same_upper"/>
			<rt_info>
				<attribute name="fused_names" version="0" value="batch_norm_output_buffer46, bias46, convolution_output49, mean6, scale46, var6"/>
			</rt_info>
			<input>
				<port id="0" precision="FP32">
					<dim>1</dim>
					<dim>128</dim>
					<dim>52</dim>
					<dim>52</dim>
				</port>
				<port id="1" precision="FP32">
					<dim>256</dim>
					<dim>128</dim>
					<dim>3</dim>
					<dim>3</dim>
				</port>
			</input>
			<output>
				<port id="2" precision="FP32">
					<dim>1</dim>
					<dim>256</dim>
					<dim>52</dim>
					<dim>52</dim>
				</port>
			</output>
		</layer>
		<layer id="164" name="Constant_26888" type="Const" version="opset1">
			<data element_type="f32" shape="1, 256, 1, 1" offset="12789892" size="1024"/>
			<output>
				<port id="0" precision="FP32">
					<dim>1</dim>
					<dim>256</dim>
					<dim>1</dim>
					<dim>1</dim>
				</port>
			</output>
		</layer>
		<layer id="165" name="batch_norm_output_buffer46" type="Add" version="opset1">
			<data auto_broadcast="numpy"/>
			<rt_info>
				<attribute name="fused_names" version="0" value="batch_norm_output_buffer46, bias46, mean6, scale46, var6"/>
			</rt_info>
			<input>
				<port id="0" precision="FP32">
					<dim>1</dim>
					<dim>256</dim>
					<dim>52</dim>
					<dim>52</dim>
				</port>
				<port id="1" precision="FP32">
					<dim>1</dim>
					<dim>256</dim>
					<dim>1</dim>
					<dim>1</dim>
				</port>
			</input>
			<output>
				<port id="2" precision="FP32" names="batch_norm_output_buffer46">
					<dim>1</dim>
					<dim>256</dim>
					<dim>52</dim>
					<dim>52</dim>
				</port>
			</output>
		</layer>
		<layer id="166" name="Constant_409" type="Const" version="opset1">
			<data element_type="f32" shape="1" offset="3584" size="4"/>
			<rt_info>
				<attribute name="fused_names" version="0" value="Constant_409"/>
			</rt_info>
			<output>
				<port id="0" precision="FP32">
					<dim>1</dim>
				</port>
			</output>
		</layer>
		<layer id="167" name="model_1/leaky_re_lu_26/LeakyRelu:0" type="PReLU" version="opset1">
			<rt_info>
				<attribute name="fused_names" version="0" value="model_1/leaky_re_lu_26/LeakyRelu:0"/>
			</rt_info>
			<input>
				<port id="0" precision="FP32">
					<dim>1</dim>
					<dim>256</dim>
					<dim>52</dim>
					<dim>52</dim>
				</port>
				<port id="1" precision="FP32">
					<dim>1</dim>
				</port>
			</input>
			<output>
				<port id="2" precision="FP32" names="model_1/leaky_re_lu_26/LeakyRelu:0">
					<dim>1</dim>
					<dim>256</dim>
					<dim>52</dim>
					<dim>52</dim>
				</port>
			</output>
		</layer>
		<layer id="168" name="model_1/add_11/add:0" type="Add" version="opset1">
			<data auto_broadcast="numpy"/>
			<rt_info>
				<attribute name="fused_names" version="0" value="model_1/add_11/add:0"/>
			</rt_info>
			<input>
				<port id="0" precision="FP32">
					<dim>1</dim>
					<dim>256</dim>
					<dim>52</dim>
					<dim>52</dim>
				</port>
				<port id="1" precision="FP32">
					<dim>1</dim>
					<dim>256</dim>
					<dim>52</dim>
					<dim>52</dim>
				</port>
			</input>
			<output>
				<port id="2" precision="FP32" names="model_1/add_11/add:0">
					<dim>1</dim>
					<dim>256</dim>
					<dim>52</dim>
					<dim>52</dim>
				</port>
			</output>
		</layer>
		<layer id="169" name="Multiply_27459" type="Const" version="opset1">
			<data element_type="f32" shape="512, 256, 3, 3" offset="12790916" size="4718592"/>
			<output>
				<port id="0" precision="FP32">
					<dim>512</dim>
					<dim>256</dim>
					<dim>3</dim>
					<dim>3</dim>
				</port>
			</output>
		</layer>
		<layer id="170" name="Multiply_26890" type="Convolution" version="opset1">
			<data strides="2, 2" dilations="1, 1" pads_begin="1, 1" pads_end="0, 0" auto_pad="explicit"/>
			<rt_info>
				<attribute name="fused_names" version="0" value="batch_norm_output_buffer45, bias45, convolution_output48, mean21, scale45, var21"/>
			</rt_info>
			<input>
				<port id="0" precision="FP32">
					<dim>1</dim>
					<dim>256</dim>
					<dim>52</dim>
					<dim>52</dim>
				</port>
				<port id="1" precision="FP32">
					<dim>512</dim>
					<dim>256</dim>
					<dim>3</dim>
					<dim>3</dim>
				</port>
			</input>
			<output>
				<port id="2" precision="FP32">
					<dim>1</dim>
					<dim>512</dim>
					<dim>26</dim>
					<dim>26</dim>
				</port>
			</output>
		</layer>
		<layer id="171" name="Constant_26895" type="Const" version="opset1">
			<data element_type="f32" shape="1, 512, 1, 1" offset="17509508" size="2048"/>
			<output>
				<port id="0" precision="FP32">
					<dim>1</dim>
					<dim>512</dim>
					<dim>1</dim>
					<dim>1</dim>
				</port>
			</output>
		</layer>
		<layer id="172" name="batch_norm_output_buffer45" type="Add" version="opset1">
			<data auto_broadcast="numpy"/>
			<rt_info>
				<attribute name="fused_names" version="0" value="batch_norm_output_buffer45, bias45, mean21, scale45, var21"/>
			</rt_info>
			<input>
				<port id="0" precision="FP32">
					<dim>1</dim>
					<dim>512</dim>
					<dim>26</dim>
					<dim>26</dim>
				</port>
				<port id="1" precision="FP32">
					<dim>1</dim>
					<dim>512</dim>
					<dim>1</dim>
					<dim>1</dim>
				</port>
			</input>
			<output>
				<port id="2" precision="FP32" names="batch_norm_output_buffer45">
					<dim>1</dim>
					<dim>512</dim>
					<dim>26</dim>
					<dim>26</dim>
				</port>
			</output>
		</layer>
		<layer id="173" name="Constant_415" type="Const" version="opset1">
			<data element_type="f32" shape="1" offset="3584" size="4"/>
			<rt_info>
				<attribute name="fused_names" version="0" value="Constant_415"/>
			</rt_info>
			<output>
				<port id="0" precision="FP32">
					<dim>1</dim>
				</port>
			</output>
		</layer>
		<layer id="174" name="model_1/leaky_re_lu_27/LeakyRelu:0" type="PReLU" version="opset1">
			<rt_info>
				<attribute name="fused_names" version="0" value="model_1/leaky_re_lu_27/LeakyRelu:0"/>
			</rt_info>
			<input>
				<port id="0" precision="FP32">
					<dim>1</dim>
					<dim>512</dim>
					<dim>26</dim>
					<dim>26</dim>
				</port>
				<port id="1" precision="FP32">
					<dim>1</dim>
				</port>
			</input>
			<output>
				<port id="2" precision="FP32" names="model_1/leaky_re_lu_27/LeakyRelu:0">
					<dim>1</dim>
					<dim>512</dim>
					<dim>26</dim>
					<dim>26</dim>
				</port>
			</output>
		</layer>
		<layer id="175" name="Multiply_27468" type="Const" version="opset1">
			<data element_type="f32" shape="256, 512, 1, 1" offset="17511556" size="524288"/>
			<output>
				<port id="0" precision="FP32">
					<dim>256</dim>
					<dim>512</dim>
					<dim>1</dim>
					<dim>1</dim>
				</port>
			</output>
		</layer>
		<layer id="176" name="Multiply_26897" type="Convolution" version="opset1">
			<data strides="1, 1" dilations="1, 1" pads_begin="0, 0" pads_end="0, 0" auto_pad="same_upper"/>
			<rt_info>
				<attribute name="fused_names" version="0" value="batch_norm_output_buffer44, bias44, convolution_output47, mean6, scale44, var6"/>
			</rt_info>
			<input>
				<port id="0" precision="FP32">
					<dim>1</dim>
					<dim>512</dim>
					<dim>26</dim>
					<dim>26</dim>
				</port>
				<port id="1" precision="FP32">
					<dim>256</dim>
					<dim>512</dim>
					<dim>1</dim>
					<dim>1</dim>
				</port>
			</input>
			<output>
				<port id="2" precision="FP32">
					<dim>1</dim>
					<dim>256</dim>
					<dim>26</dim>
					<dim>26</dim>
				</port>
			</output>
		</layer>
		<layer id="177" name="Constant_26902" type="Const" version="opset1">
			<data element_type="f32" shape="1, 256, 1, 1" offset="18035844" size="1024"/>
			<output>
				<port id="0" precision="FP32">
					<dim>1</dim>
					<dim>256</dim>
					<dim>1</dim>
					<dim>1</dim>
				</port>
			</output>
		</layer>
		<layer id="178" name="batch_norm_output_buffer44" type="Add" version="opset1">
			<data auto_broadcast="numpy"/>
			<rt_info>
				<attribute name="fused_names" version="0" value="batch_norm_output_buffer44, bias44, mean6, scale44, var6"/>
			</rt_info>
			<input>
				<port id="0" precision="FP32">
					<dim>1</dim>
					<dim>256</dim>
					<dim>26</dim>
					<dim>26</dim>
				</port>
				<port id="1" precision="FP32">
					<dim>1</dim>
					<dim>256</dim>
					<dim>1</dim>
					<dim>1</dim>
				</port>
			</input>
			<output>
				<port id="2" precision="FP32" names="batch_norm_output_buffer44">
					<dim>1</dim>
					<dim>256</dim>
					<dim>26</dim>
					<dim>26</dim>
				</port>
			</output>
		</layer>
		<layer id="179" name="Constant_420" type="Const" version="opset1">
			<data element_type="f32" shape="1" offset="3584" size="4"/>
			<rt_info>
				<attribute name="fused_names" version="0" value="Constant_420"/>
			</rt_info>
			<output>
				<port id="0" precision="FP32">
					<dim>1</dim>
				</port>
			</output>
		</layer>
		<layer id="180" name="model_1/leaky_re_lu_28/LeakyRelu:0" type="PReLU" version="opset1">
			<rt_info>
				<attribute name="fused_names" version="0" value="model_1/leaky_re_lu_28/LeakyRelu:0"/>
			</rt_info>
			<input>
				<port id="0" precision="FP32">
					<dim>1</dim>
					<dim>256</dim>
					<dim>26</dim>
					<dim>26</dim>
				</port>
				<port id="1" precision="FP32">
					<dim>1</dim>
				</port>
			</input>
			<output>
				<port id="2" precision="FP32" names="model_1/leaky_re_lu_28/LeakyRelu:0">
					<dim>1</dim>
					<dim>256</dim>
					<dim>26</dim>
					<dim>26</dim>
				</port>
			</output>
		</layer>
		<layer id="181" name="Multiply_27477" type="Const" version="opset1">
			<data element_type="f32" shape="512, 256, 3, 3" offset="18036868" size="4718592"/>
			<output>
				<port id="0" precision="FP32">
					<dim>512</dim>
					<dim>256</dim>
					<dim>3</dim>
					<dim>3</dim>
				</port>
			</output>
		</layer>
		<layer id="182" name="Multiply_26904" type="Convolution" version="opset1">
			<data strides="1, 1" dilations="1, 1" pads_begin="0, 0" pads_end="0, 0" auto_pad="same_upper"/>
			<rt_info>
				<attribute name="fused_names" version="0" value="batch_norm_output_buffer43, bias43, convolution_output46, mean21, scale43, var21"/>
			</rt_info>
			<input>
				<port id="0" precision="FP32">
					<dim>1</dim>
					<dim>256</dim>
					<dim>26</dim>
					<dim>26</dim>
				</port>
				<port id="1" precision="FP32">
					<dim>512</dim>
					<dim>256</dim>
					<dim>3</dim>
					<dim>3</dim>
				</port>
			</input>
			<output>
				<port id="2" precision="FP32">
					<dim>1</dim>
					<dim>512</dim>
					<dim>26</dim>
					<dim>26</dim>
				</port>
			</output>
		</layer>
		<layer id="183" name="Constant_26909" type="Const" version="opset1">
			<data element_type="f32" shape="1, 512, 1, 1" offset="22755460" size="2048"/>
			<output>
				<port id="0" precision="FP32">
					<dim>1</dim>
					<dim>512</dim>
					<dim>1</dim>
					<dim>1</dim>
				</port>
			</output>
		</layer>
		<layer id="184" name="batch_norm_output_buffer43" type="Add" version="opset1">
			<data auto_broadcast="numpy"/>
			<rt_info>
				<attribute name="fused_names" version="0" value="batch_norm_output_buffer43, bias43, mean21, scale43, var21"/>
			</rt_info>
			<input>
				<port id="0" precision="FP32">
					<dim>1</dim>
					<dim>512</dim>
					<dim>26</dim>
					<dim>26</dim>
				</port>
				<port id="1" precision="FP32">
					<dim>1</dim>
					<dim>512</dim>
					<dim>1</dim>
					<dim>1</dim>
				</port>
			</input>
			<output>
				<port id="2" precision="FP32" names="batch_norm_output_buffer43">
					<dim>1</dim>
					<dim>512</dim>
					<dim>26</dim>
					<dim>26</dim>
				</port>
			</output>
		</layer>
		<layer id="185" name="Constant_425" type="Const" version="opset1">
			<data element_type="f32" shape="1" offset="3584" size="4"/>
			<rt_info>
				<attribute name="fused_names" version="0" value="Constant_425"/>
			</rt_info>
			<output>
				<port id="0" precision="FP32">
					<dim>1</dim>
				</port>
			</output>
		</layer>
		<layer id="186" name="model_1/leaky_re_lu_29/LeakyRelu:0" type="PReLU" version="opset1">
			<rt_info>
				<attribute name="fused_names" version="0" value="model_1/leaky_re_lu_29/LeakyRelu:0"/>
			</rt_info>
			<input>
				<port id="0" precision="FP32">
					<dim>1</dim>
					<dim>512</dim>
					<dim>26</dim>
					<dim>26</dim>
				</port>
				<port id="1" precision="FP32">
					<dim>1</dim>
				</port>
			</input>
			<output>
				<port id="2" precision="FP32" names="model_1/leaky_re_lu_29/LeakyRelu:0">
					<dim>1</dim>
					<dim>512</dim>
					<dim>26</dim>
					<dim>26</dim>
				</port>
			</output>
		</layer>
		<layer id="187" name="model_1/add_12/add:0" type="Add" version="opset1">
			<data auto_broadcast="numpy"/>
			<rt_info>
				<attribute name="fused_names" version="0" value="model_1/add_12/add:0"/>
			</rt_info>
			<input>
				<port id="0" precision="FP32">
					<dim>1</dim>
					<dim>512</dim>
					<dim>26</dim>
					<dim>26</dim>
				</port>
				<port id="1" precision="FP32">
					<dim>1</dim>
					<dim>512</dim>
					<dim>26</dim>
					<dim>26</dim>
				</port>
			</input>
			<output>
				<port id="2" precision="FP32" names="model_1/add_12/add:0">
					<dim>1</dim>
					<dim>512</dim>
					<dim>26</dim>
					<dim>26</dim>
				</port>
			</output>
		</layer>
		<layer id="188" name="Multiply_27486" type="Const" version="opset1">
			<data element_type="f32" shape="256, 512, 1, 1" offset="22757508" size="524288"/>
			<output>
				<port id="0" precision="FP32">
					<dim>256</dim>
					<dim>512</dim>
					<dim>1</dim>
					<dim>1</dim>
				</port>
			</output>
		</layer>
		<layer id="189" name="Multiply_26911" type="Convolution" version="opset1">
			<data strides="1, 1" dilations="1, 1" pads_begin="0, 0" pads_end="0, 0" auto_pad="same_upper"/>
			<rt_info>
				<attribute name="fused_names" version="0" value="batch_norm_output_buffer42, bias42, convolution_output45, mean6, scale42, var6"/>
			</rt_info>
			<input>
				<port id="0" precision="FP32">
					<dim>1</dim>
					<dim>512</dim>
					<dim>26</dim>
					<dim>26</dim>
				</port>
				<port id="1" precision="FP32">
					<dim>256</dim>
					<dim>512</dim>
					<dim>1</dim>
					<dim>1</dim>
				</port>
			</input>
			<output>
				<port id="2" precision="FP32">
					<dim>1</dim>
					<dim>256</dim>
					<dim>26</dim>
					<dim>26</dim>
				</port>
			</output>
		</layer>
		<layer id="190" name="Constant_26916" type="Const" version="opset1">
			<data element_type="f32" shape="1, 256, 1, 1" offset="23281796" size="1024"/>
			<output>
				<port id="0" precision="FP32">
					<dim>1</dim>
					<dim>256</dim>
					<dim>1</dim>
					<dim>1</dim>
				</port>
			</output>
		</layer>
		<layer id="191" name="batch_norm_output_buffer42" type="Add" version="opset1">
			<data auto_broadcast="numpy"/>
			<rt_info>
				<attribute name="fused_names" version="0" value="batch_norm_output_buffer42, bias42, mean6, scale42, var6"/>
			</rt_info>
			<input>
				<port id="0" precision="FP32">
					<dim>1</dim>
					<dim>256</dim>
					<dim>26</dim>
					<dim>26</dim>
				</port>
				<port id="1" precision="FP32">
					<dim>1</dim>
					<dim>256</dim>
					<dim>1</dim>
					<dim>1</dim>
				</port>
			</input>
			<output>
				<port id="2" precision="FP32" names="batch_norm_output_buffer42">
					<dim>1</dim>
					<dim>256</dim>
					<dim>26</dim>
					<dim>26</dim>
				</port>
			</output>
		</layer>
		<layer id="192" name="Constant_431" type="Const" version="opset1">
			<data element_type="f32" shape="1" offset="3584" size="4"/>
			<rt_info>
				<attribute name="fused_names" version="0" value="Constant_431"/>
			</rt_info>
			<output>
				<port id="0" precision="FP32">
					<dim>1</dim>
				</port>
			</output>
		</layer>
		<layer id="193" name="model_1/leaky_re_lu_30/LeakyRelu:0" type="PReLU" version="opset1">
			<rt_info>
				<attribute name="fused_names" version="0" value="model_1/leaky_re_lu_30/LeakyRelu:0"/>
			</rt_info>
			<input>
				<port id="0" precision="FP32">
					<dim>1</dim>
					<dim>256</dim>
					<dim>26</dim>
					<dim>26</dim>
				</port>
				<port id="1" precision="FP32">
					<dim>1</dim>
				</port>
			</input>
			<output>
				<port id="2" precision="FP32" names="model_1/leaky_re_lu_30/LeakyRelu:0">
					<dim>1</dim>
					<dim>256</dim>
					<dim>26</dim>
					<dim>26</dim>
				</port>
			</output>
		</layer>
		<layer id="194" name="Multiply_27495" type="Const" version="opset1">
			<data element_type="f32" shape="512, 256, 3, 3" offset="23282820" size="4718592"/>
			<output>
				<port id="0" precision="FP32">
					<dim>512</dim>
					<dim>256</dim>
					<dim>3</dim>
					<dim>3</dim>
				</port>
			</output>
		</layer>
		<layer id="195" name="Multiply_26918" type="Convolution" version="opset1">
			<data strides="1, 1" dilations="1, 1" pads_begin="0, 0" pads_end="0, 0" auto_pad="same_upper"/>
			<rt_info>
				<attribute name="fused_names" version="0" value="batch_norm_output_buffer41, bias41, convolution_output44, mean21, scale41, var21"/>
			</rt_info>
			<input>
				<port id="0" precision="FP32">
					<dim>1</dim>
					<dim>256</dim>
					<dim>26</dim>
					<dim>26</dim>
				</port>
				<port id="1" precision="FP32">
					<dim>512</dim>
					<dim>256</dim>
					<dim>3</dim>
					<dim>3</dim>
				</port>
			</input>
			<output>
				<port id="2" precision="FP32">
					<dim>1</dim>
					<dim>512</dim>
					<dim>26</dim>
					<dim>26</dim>
				</port>
			</output>
		</layer>
		<layer id="196" name="Constant_26923" type="Const" version="opset1">
			<data element_type="f32" shape="1, 512, 1, 1" offset="28001412" size="2048"/>
			<output>
				<port id="0" precision="FP32">
					<dim>1</dim>
					<dim>512</dim>
					<dim>1</dim>
					<dim>1</dim>
				</port>
			</output>
		</layer>
		<layer id="197" name="batch_norm_output_buffer41" type="Add" version="opset1">
			<data auto_broadcast="numpy"/>
			<rt_info>
				<attribute name="fused_names" version="0" value="batch_norm_output_buffer41, bias41, mean21, scale41, var21"/>
			</rt_info>
			<input>
				<port id="0" precision="FP32">
					<dim>1</dim>
					<dim>512</dim>
					<dim>26</dim>
					<dim>26</dim>
				</port>
				<port id="1" precision="FP32">
					<dim>1</dim>
					<dim>512</dim>
					<dim>1</dim>
					<dim>1</dim>
				</port>
			</input>
			<output>
				<port id="2" precision="FP32" names="batch_norm_output_buffer41">
					<dim>1</dim>
					<dim>512</dim>
					<dim>26</dim>
					<dim>26</dim>
				</port>
			</output>
		</layer>
		<layer id="198" name="Constant_436" type="Const" version="opset1">
			<data element_type="f32" shape="1" offset="3584" size="4"/>
			<rt_info>
				<attribute name="fused_names" version="0" value="Constant_436"/>
			</rt_info>
			<output>
				<port id="0" precision="FP32">
					<dim>1</dim>
				</port>
			</output>
		</layer>
		<layer id="199" name="model_1/leaky_re_lu_31/LeakyRelu:0" type="PReLU" version="opset1">
			<rt_info>
				<attribute name="fused_names" version="0" value="model_1/leaky_re_lu_31/LeakyRelu:0"/>
			</rt_info>
			<input>
				<port id="0" precision="FP32">
					<dim>1</dim>
					<dim>512</dim>
					<dim>26</dim>
					<dim>26</dim>
				</port>
				<port id="1" precision="FP32">
					<dim>1</dim>
				</port>
			</input>
			<output>
				<port id="2" precision="FP32" names="model_1/leaky_re_lu_31/LeakyRelu:0">
					<dim>1</dim>
					<dim>512</dim>
					<dim>26</dim>
					<dim>26</dim>
				</port>
			</output>
		</layer>
		<layer id="200" name="model_1/add_13/add:0" type="Add" version="opset1">
			<data auto_broadcast="numpy"/>
			<rt_info>
				<attribute name="fused_names" version="0" value="model_1/add_13/add:0"/>
			</rt_info>
			<input>
				<port id="0" precision="FP32">
					<dim>1</dim>
					<dim>512</dim>
					<dim>26</dim>
					<dim>26</dim>
				</port>
				<port id="1" precision="FP32">
					<dim>1</dim>
					<dim>512</dim>
					<dim>26</dim>
					<dim>26</dim>
				</port>
			</input>
			<output>
				<port id="2" precision="FP32" names="model_1/add_13/add:0">
					<dim>1</dim>
					<dim>512</dim>
					<dim>26</dim>
					<dim>26</dim>
				</port>
			</output>
		</layer>
		<layer id="201" name="Multiply_27504" type="Const" version="opset1">
			<data element_type="f32" shape="256, 512, 1, 1" offset="28003460" size="524288"/>
			<output>
				<port id="0" precision="FP32">
					<dim>256</dim>
					<dim>512</dim>
					<dim>1</dim>
					<dim>1</dim>
				</port>
			</output>
		</layer>
		<layer id="202" name="Multiply_26925" type="Convolution" version="opset1">
			<data strides="1, 1" dilations="1, 1" pads_begin="0, 0" pads_end="0, 0" auto_pad="same_upper"/>
			<rt_info>
				<attribute name="fused_names" version="0" value="batch_norm_output_buffer40, bias40, convolution_output43, mean6, scale40, var6"/>
			</rt_info>
			<input>
				<port id="0" precision="FP32">
					<dim>1</dim>
					<dim>512</dim>
					<dim>26</dim>
					<dim>26</dim>
				</port>
				<port id="1" precision="FP32">
					<dim>256</dim>
					<dim>512</dim>
					<dim>1</dim>
					<dim>1</dim>
				</port>
			</input>
			<output>
				<port id="2" precision="FP32">
					<dim>1</dim>
					<dim>256</dim>
					<dim>26</dim>
					<dim>26</dim>
				</port>
			</output>
		</layer>
		<layer id="203" name="Constant_26930" type="Const" version="opset1">
			<data element_type="f32" shape="1, 256, 1, 1" offset="28527748" size="1024"/>
			<output>
				<port id="0" precision="FP32">
					<dim>1</dim>
					<dim>256</dim>
					<dim>1</dim>
					<dim>1</dim>
				</port>
			</output>
		</layer>
		<layer id="204" name="batch_norm_output_buffer40" type="Add" version="opset1">
			<data auto_broadcast="numpy"/>
			<rt_info>
				<attribute name="fused_names" version="0" value="batch_norm_output_buffer40, bias40, mean6, scale40, var6"/>
			</rt_info>
			<input>
				<port id="0" precision="FP32">
					<dim>1</dim>
					<dim>256</dim>
					<dim>26</dim>
					<dim>26</dim>
				</port>
				<port id="1" precision="FP32">
					<dim>1</dim>
					<dim>256</dim>
					<dim>1</dim>
					<dim>1</dim>
				</port>
			</input>
			<output>
				<port id="2" precision="FP32" names="batch_norm_output_buffer40">
					<dim>1</dim>
					<dim>256</dim>
					<dim>26</dim>
					<dim>26</dim>
				</port>
			</output>
		</layer>
		<layer id="205" name="Constant_442" type="Const" version="opset1">
			<data element_type="f32" shape="1" offset="3584" size="4"/>
			<rt_info>
				<attribute name="fused_names" version="0" value="Constant_442"/>
			</rt_info>
			<output>
				<port id="0" precision="FP32">
					<dim>1</dim>
				</port>
			</output>
		</layer>
		<layer id="206" name="model_1/leaky_re_lu_32/LeakyRelu:0" type="PReLU" version="opset1">
			<rt_info>
				<attribute name="fused_names" version="0" value="model_1/leaky_re_lu_32/LeakyRelu:0"/>
			</rt_info>
			<input>
				<port id="0" precision="FP32">
					<dim>1</dim>
					<dim>256</dim>
					<dim>26</dim>
					<dim>26</dim>
				</port>
				<port id="1" precision="FP32">
					<dim>1</dim>
				</port>
			</input>
			<output>
				<port id="2" precision="FP32" names="model_1/leaky_re_lu_32/LeakyRelu:0">
					<dim>1</dim>
					<dim>256</dim>
					<dim>26</dim>
					<dim>26</dim>
				</port>
			</output>
		</layer>
		<layer id="207" name="Multiply_27513" type="Const" version="opset1">
			<data element_type="f32" shape="512, 256, 3, 3" offset="28528772" size="4718592"/>
			<output>
				<port id="0" precision="FP32">
					<dim>512</dim>
					<dim>256</dim>
					<dim>3</dim>
					<dim>3</dim>
				</port>
			</output>
		</layer>
		<layer id="208" name="Multiply_26932" type="Convolution" version="opset1">
			<data strides="1, 1" dilations="1, 1" pads_begin="0, 0" pads_end="0, 0" auto_pad="same_upper"/>
			<rt_info>
				<attribute name="fused_names" version="0" value="batch_norm_output_buffer39, bias39, convolution_output42, mean21, scale39, var21"/>
			</rt_info>
			<input>
				<port id="0" precision="FP32">
					<dim>1</dim>
					<dim>256</dim>
					<dim>26</dim>
					<dim>26</dim>
				</port>
				<port id="1" precision="FP32">
					<dim>512</dim>
					<dim>256</dim>
					<dim>3</dim>
					<dim>3</dim>
				</port>
			</input>
			<output>
				<port id="2" precision="FP32">
					<dim>1</dim>
					<dim>512</dim>
					<dim>26</dim>
					<dim>26</dim>
				</port>
			</output>
		</layer>
		<layer id="209" name="Constant_26937" type="Const" version="opset1">
			<data element_type="f32" shape="1, 512, 1, 1" offset="33247364" size="2048"/>
			<output>
				<port id="0" precision="FP32">
					<dim>1</dim>
					<dim>512</dim>
					<dim>1</dim>
					<dim>1</dim>
				</port>
			</output>
		</layer>
		<layer id="210" name="batch_norm_output_buffer39" type="Add" version="opset1">
			<data auto_broadcast="numpy"/>
			<rt_info>
				<attribute name="fused_names" version="0" value="batch_norm_output_buffer39, bias39, mean21, scale39, var21"/>
			</rt_info>
			<input>
				<port id="0" precision="FP32">
					<dim>1</dim>
					<dim>512</dim>
					<dim>26</dim>
					<dim>26</dim>
				</port>
				<port id="1" precision="FP32">
					<dim>1</dim>
					<dim>512</dim>
					<dim>1</dim>
					<dim>1</dim>
				</port>
			</input>
			<output>
				<port id="2" precision="FP32" names="batch_norm_output_buffer39">
					<dim>1</dim>
					<dim>512</dim>
					<dim>26</dim>
					<dim>26</dim>
				</port>
			</output>
		</layer>
		<layer id="211" name="Constant_447" type="Const" version="opset1">
			<data element_type="f32" shape="1" offset="3584" size="4"/>
			<rt_info>
				<attribute name="fused_names" version="0" value="Constant_447"/>
			</rt_info>
			<output>
				<port id="0" precision="FP32">
					<dim>1</dim>
				</port>
			</output>
		</layer>
		<layer id="212" name="model_1/leaky_re_lu_33/LeakyRelu:0" type="PReLU" version="opset1">
			<rt_info>
				<attribute name="fused_names" version="0" value="model_1/leaky_re_lu_33/LeakyRelu:0"/>
			</rt_info>
			<input>
				<port id="0" precision="FP32">
					<dim>1</dim>
					<dim>512</dim>
					<dim>26</dim>
					<dim>26</dim>
				</port>
				<port id="1" precision="FP32">
					<dim>1</dim>
				</port>
			</input>
			<output>
				<port id="2" precision="FP32" names="model_1/leaky_re_lu_33/LeakyRelu:0">
					<dim>1</dim>
					<dim>512</dim>
					<dim>26</dim>
					<dim>26</dim>
				</port>
			</output>
		</layer>
		<layer id="213" name="model_1/add_14/add:0" type="Add" version="opset1">
			<data auto_broadcast="numpy"/>
			<rt_info>
				<attribute name="fused_names" version="0" value="model_1/add_14/add:0"/>
			</rt_info>
			<input>
				<port id="0" precision="FP32">
					<dim>1</dim>
					<dim>512</dim>
					<dim>26</dim>
					<dim>26</dim>
				</port>
				<port id="1" precision="FP32">
					<dim>1</dim>
					<dim>512</dim>
					<dim>26</dim>
					<dim>26</dim>
				</port>
			</input>
			<output>
				<port id="2" precision="FP32" names="model_1/add_14/add:0">
					<dim>1</dim>
					<dim>512</dim>
					<dim>26</dim>
					<dim>26</dim>
				</port>
			</output>
		</layer>
		<layer id="214" name="Multiply_27522" type="Const" version="opset1">
			<data element_type="f32" shape="256, 512, 1, 1" offset="33249412" size="524288"/>
			<output>
				<port id="0" precision="FP32">
					<dim>256</dim>
					<dim>512</dim>
					<dim>1</dim>
					<dim>1</dim>
				</port>
			</output>
		</layer>
		<layer id="215" name="Multiply_26939" type="Convolution" version="opset1">
			<data strides="1, 1" dilations="1, 1" pads_begin="0, 0" pads_end="0, 0" auto_pad="same_upper"/>
			<rt_info>
				<attribute name="fused_names" version="0" value="batch_norm_output_buffer38, bias38, convolution_output41, mean6, scale38, var6"/>
			</rt_info>
			<input>
				<port id="0" precision="FP32">
					<dim>1</dim>
					<dim>512</dim>
					<dim>26</dim>
					<dim>26</dim>
				</port>
				<port id="1" precision="FP32">
					<dim>256</dim>
					<dim>512</dim>
					<dim>1</dim>
					<dim>1</dim>
				</port>
			</input>
			<output>
				<port id="2" precision="FP32">
					<dim>1</dim>
					<dim>256</dim>
					<dim>26</dim>
					<dim>26</dim>
				</port>
			</output>
		</layer>
		<layer id="216" name="Constant_26944" type="Const" version="opset1">
			<data element_type="f32" shape="1, 256, 1, 1" offset="33773700" size="1024"/>
			<output>
				<port id="0" precision="FP32">
					<dim>1</dim>
					<dim>256</dim>
					<dim>1</dim>
					<dim>1</dim>
				</port>
			</output>
		</layer>
		<layer id="217" name="batch_norm_output_buffer38" type="Add" version="opset1">
			<data auto_broadcast="numpy"/>
			<rt_info>
				<attribute name="fused_names" version="0" value="batch_norm_output_buffer38, bias38, mean6, scale38, var6"/>
			</rt_info>
			<input>
				<port id="0" precision="FP32">
					<dim>1</dim>
					<dim>256</dim>
					<dim>26</dim>
					<dim>26</dim>
				</port>
				<port id="1" precision="FP32">
					<dim>1</dim>
					<dim>256</dim>
					<dim>1</dim>
					<dim>1</dim>
				</port>
			</input>
			<output>
				<port id="2" precision="FP32" names="batch_norm_output_buffer38">
					<dim>1</dim>
					<dim>256</dim>
					<dim>26</dim>
					<dim>26</dim>
				</port>
			</output>
		</layer>
		<layer id="218" name="Constant_453" type="Const" version="opset1">
			<data element_type="f32" shape="1" offset="3584" size="4"/>
			<rt_info>
				<attribute name="fused_names" version="0" value="Constant_453"/>
			</rt_info>
			<output>
				<port id="0" precision="FP32">
					<dim>1</dim>
				</port>
			</output>
		</layer>
		<layer id="219" name="model_1/leaky_re_lu_34/LeakyRelu:0" type="PReLU" version="opset1">
			<rt_info>
				<attribute name="fused_names" version="0" value="model_1/leaky_re_lu_34/LeakyRelu:0"/>
			</rt_info>
			<input>
				<port id="0" precision="FP32">
					<dim>1</dim>
					<dim>256</dim>
					<dim>26</dim>
					<dim>26</dim>
				</port>
				<port id="1" precision="FP32">
					<dim>1</dim>
				</port>
			</input>
			<output>
				<port id="2" precision="FP32" names="model_1/leaky_re_lu_34/LeakyRelu:0">
					<dim>1</dim>
					<dim>256</dim>
					<dim>26</dim>
					<dim>26</dim>
				</port>
			</output>
		</layer>
		<layer id="220" name="Multiply_27531" type="Const" version="opset1">
			<data element_type="f32" shape="512, 256, 3, 3" offset="33774724" size="4718592"/>
			<output>
				<port id="0" precision="FP32">
					<dim>512</dim>
					<dim>256</dim>
					<dim>3</dim>
					<dim>3</dim>
				</port>
			</output>
		</layer>
		<layer id="221" name="Multiply_26946" type="Convolution" version="opset1">
			<data strides="1, 1" dilations="1, 1" pads_begin="0, 0" pads_end="0, 0" auto_pad="same_upper"/>
			<rt_info>
				<attribute name="fused_names" version="0" value="batch_norm_output_buffer37, bias37, convolution_output40, mean21, scale37, var21"/>
			</rt_info>
			<input>
				<port id="0" precision="FP32">
					<dim>1</dim>
					<dim>256</dim>
					<dim>26</dim>
					<dim>26</dim>
				</port>
				<port id="1" precision="FP32">
					<dim>512</dim>
					<dim>256</dim>
					<dim>3</dim>
					<dim>3</dim>
				</port>
			</input>
			<output>
				<port id="2" precision="FP32">
					<dim>1</dim>
					<dim>512</dim>
					<dim>26</dim>
					<dim>26</dim>
				</port>
			</output>
		</layer>
		<layer id="222" name="Constant_26951" type="Const" version="opset1">
			<data element_type="f32" shape="1, 512, 1, 1" offset="38493316" size="2048"/>
			<output>
				<port id="0" precision="FP32">
					<dim>1</dim>
					<dim>512</dim>
					<dim>1</dim>
					<dim>1</dim>
				</port>
			</output>
		</layer>
		<layer id="223" name="batch_norm_output_buffer37" type="Add" version="opset1">
			<data auto_broadcast="numpy"/>
			<rt_info>
				<attribute name="fused_names" version="0" value="batch_norm_output_buffer37, bias37, mean21, scale37, var21"/>
			</rt_info>
			<input>
				<port id="0" precision="FP32">
					<dim>1</dim>
					<dim>512</dim>
					<dim>26</dim>
					<dim>26</dim>
				</port>
				<port id="1" precision="FP32">
					<dim>1</dim>
					<dim>512</dim>
					<dim>1</dim>
					<dim>1</dim>
				</port>
			</input>
			<output>
				<port id="2" precision="FP32" names="batch_norm_output_buffer37">
					<dim>1</dim>
					<dim>512</dim>
					<dim>26</dim>
					<dim>26</dim>
				</port>
			</output>
		</layer>
		<layer id="224" name="Constant_458" type="Const" version="opset1">
			<data element_type="f32" shape="1" offset="3584" size="4"/>
			<rt_info>
				<attribute name="fused_names" version="0" value="Constant_458"/>
			</rt_info>
			<output>
				<port id="0" precision="FP32">
					<dim>1</dim>
				</port>
			</output>
		</layer>
		<layer id="225" name="model_1/leaky_re_lu_35/LeakyRelu:0" type="PReLU" version="opset1">
			<rt_info>
				<attribute name="fused_names" version="0" value="model_1/leaky_re_lu_35/LeakyRelu:0"/>
			</rt_info>
			<input>
				<port id="0" precision="FP32">
					<dim>1</dim>
					<dim>512</dim>
					<dim>26</dim>
					<dim>26</dim>
				</port>
				<port id="1" precision="FP32">
					<dim>1</dim>
				</port>
			</input>
			<output>
				<port id="2" precision="FP32" names="model_1/leaky_re_lu_35/LeakyRelu:0">
					<dim>1</dim>
					<dim>512</dim>
					<dim>26</dim>
					<dim>26</dim>
				</port>
			</output>
		</layer>
		<layer id="226" name="model_1/add_15/add:0" type="Add" version="opset1">
			<data auto_broadcast="numpy"/>
			<rt_info>
				<attribute name="fused_names" version="0" value="model_1/add_15/add:0"/>
			</rt_info>
			<input>
				<port id="0" precision="FP32">
					<dim>1</dim>
					<dim>512</dim>
					<dim>26</dim>
					<dim>26</dim>
				</port>
				<port id="1" precision="FP32">
					<dim>1</dim>
					<dim>512</dim>
					<dim>26</dim>
					<dim>26</dim>
				</port>
			</input>
			<output>
				<port id="2" precision="FP32" names="model_1/add_15/add:0">
					<dim>1</dim>
					<dim>512</dim>
					<dim>26</dim>
					<dim>26</dim>
				</port>
			</output>
		</layer>
		<layer id="227" name="Multiply_27540" type="Const" version="opset1">
			<data element_type="f32" shape="256, 512, 1, 1" offset="38495364" size="524288"/>
			<output>
				<port id="0" precision="FP32">
					<dim>256</dim>
					<dim>512</dim>
					<dim>1</dim>
					<dim>1</dim>
				</port>
			</output>
		</layer>
		<layer id="228" name="Multiply_26953" type="Convolution" version="opset1">
			<data strides="1, 1" dilations="1, 1" pads_begin="0, 0" pads_end="0, 0" auto_pad="same_upper"/>
			<rt_info>
				<attribute name="fused_names" version="0" value="batch_norm_output_buffer36, bias36, convolution_output39, mean6, scale36, var6"/>
			</rt_info>
			<input>
				<port id="0" precision="FP32">
					<dim>1</dim>
					<dim>512</dim>
					<dim>26</dim>
					<dim>26</dim>
				</port>
				<port id="1" precision="FP32">
					<dim>256</dim>
					<dim>512</dim>
					<dim>1</dim>
					<dim>1</dim>
				</port>
			</input>
			<output>
				<port id="2" precision="FP32">
					<dim>1</dim>
					<dim>256</dim>
					<dim>26</dim>
					<dim>26</dim>
				</port>
			</output>
		</layer>
		<layer id="229" name="Constant_26958" type="Const" version="opset1">
			<data element_type="f32" shape="1, 256, 1, 1" offset="39019652" size="1024"/>
			<output>
				<port id="0" precision="FP32">
					<dim>1</dim>
					<dim>256</dim>
					<dim>1</dim>
					<dim>1</dim>
				</port>
			</output>
		</layer>
		<layer id="230" name="batch_norm_output_buffer36" type="Add" version="opset1">
			<data auto_broadcast="numpy"/>
			<rt_info>
				<attribute name="fused_names" version="0" value="batch_norm_output_buffer36, bias36, mean6, scale36, var6"/>
			</rt_info>
			<input>
				<port id="0" precision="FP32">
					<dim>1</dim>
					<dim>256</dim>
					<dim>26</dim>
					<dim>26</dim>
				</port>
				<port id="1" precision="FP32">
					<dim>1</dim>
					<dim>256</dim>
					<dim>1</dim>
					<dim>1</dim>
				</port>
			</input>
			<output>
				<port id="2" precision="FP32" names="batch_norm_output_buffer36">
					<dim>1</dim>
					<dim>256</dim>
					<dim>26</dim>
					<dim>26</dim>
				</port>
			</output>
		</layer>
		<layer id="231" name="Constant_464" type="Const" version="opset1">
			<data element_type="f32" shape="1" offset="3584" size="4"/>
			<rt_info>
				<attribute name="fused_names" version="0" value="Constant_464"/>
			</rt_info>
			<output>
				<port id="0" precision="FP32">
					<dim>1</dim>
				</port>
			</output>
		</layer>
		<layer id="232" name="model_1/leaky_re_lu_36/LeakyRelu:0" type="PReLU" version="opset1">
			<rt_info>
				<attribute name="fused_names" version="0" value="model_1/leaky_re_lu_36/LeakyRelu:0"/>
			</rt_info>
			<input>
				<port id="0" precision="FP32">
					<dim>1</dim>
					<dim>256</dim>
					<dim>26</dim>
					<dim>26</dim>
				</port>
				<port id="1" precision="FP32">
					<dim>1</dim>
				</port>
			</input>
			<output>
				<port id="2" precision="FP32" names="model_1/leaky_re_lu_36/LeakyRelu:0">
					<dim>1</dim>
					<dim>256</dim>
					<dim>26</dim>
					<dim>26</dim>
				</port>
			</output>
		</layer>
		<layer id="233" name="Multiply_27549" type="Const" version="opset1">
			<data element_type="f32" shape="512, 256, 3, 3" offset="39020676" size="4718592"/>
			<output>
				<port id="0" precision="FP32">
					<dim>512</dim>
					<dim>256</dim>
					<dim>3</dim>
					<dim>3</dim>
				</port>
			</output>
		</layer>
		<layer id="234" name="Multiply_26960" type="Convolution" version="opset1">
			<data strides="1, 1" dilations="1, 1" pads_begin="0, 0" pads_end="0, 0" auto_pad="same_upper"/>
			<rt_info>
				<attribute name="fused_names" version="0" value="batch_norm_output_buffer35, bias35, convolution_output38, mean21, scale35, var21"/>
			</rt_info>
			<input>
				<port id="0" precision="FP32">
					<dim>1</dim>
					<dim>256</dim>
					<dim>26</dim>
					<dim>26</dim>
				</port>
				<port id="1" precision="FP32">
					<dim>512</dim>
					<dim>256</dim>
					<dim>3</dim>
					<dim>3</dim>
				</port>
			</input>
			<output>
				<port id="2" precision="FP32">
					<dim>1</dim>
					<dim>512</dim>
					<dim>26</dim>
					<dim>26</dim>
				</port>
			</output>
		</layer>
		<layer id="235" name="Constant_26965" type="Const" version="opset1">
			<data element_type="f32" shape="1, 512, 1, 1" offset="43739268" size="2048"/>
			<output>
				<port id="0" precision="FP32">
					<dim>1</dim>
					<dim>512</dim>
					<dim>1</dim>
					<dim>1</dim>
				</port>
			</output>
		</layer>
		<layer id="236" name="batch_norm_output_buffer35" type="Add" version="opset1">
			<data auto_broadcast="numpy"/>
			<rt_info>
				<attribute name="fused_names" version="0" value="batch_norm_output_buffer35, bias35, mean21, scale35, var21"/>
			</rt_info>
			<input>
				<port id="0" precision="FP32">
					<dim>1</dim>
					<dim>512</dim>
					<dim>26</dim>
					<dim>26</dim>
				</port>
				<port id="1" precision="FP32">
					<dim>1</dim>
					<dim>512</dim>
					<dim>1</dim>
					<dim>1</dim>
				</port>
			</input>
			<output>
				<port id="2" precision="FP32" names="batch_norm_output_buffer35">
					<dim>1</dim>
					<dim>512</dim>
					<dim>26</dim>
					<dim>26</dim>
				</port>
			</output>
		</layer>
		<layer id="237" name="Constant_469" type="Const" version="opset1">
			<data element_type="f32" shape="1" offset="3584" size="4"/>
			<rt_info>
				<attribute name="fused_names" version="0" value="Constant_469"/>
			</rt_info>
			<output>
				<port id="0" precision="FP32">
					<dim>1</dim>
				</port>
			</output>
		</layer>
		<layer id="238" name="model_1/leaky_re_lu_37/LeakyRelu:0" type="PReLU" version="opset1">
			<rt_info>
				<attribute name="fused_names" version="0" value="model_1/leaky_re_lu_37/LeakyRelu:0"/>
			</rt_info>
			<input>
				<port id="0" precision="FP32">
					<dim>1</dim>
					<dim>512</dim>
					<dim>26</dim>
					<dim>26</dim>
				</port>
				<port id="1" precision="FP32">
					<dim>1</dim>
				</port>
			</input>
			<output>
				<port id="2" precision="FP32" names="model_1/leaky_re_lu_37/LeakyRelu:0">
					<dim>1</dim>
					<dim>512</dim>
					<dim>26</dim>
					<dim>26</dim>
				</port>
			</output>
		</layer>
		<layer id="239" name="model_1/add_16/add:0" type="Add" version="opset1">
			<data auto_broadcast="numpy"/>
			<rt_info>
				<attribute name="fused_names" version="0" value="model_1/add_16/add:0"/>
			</rt_info>
			<input>
				<port id="0" precision="FP32">
					<dim>1</dim>
					<dim>512</dim>
					<dim>26</dim>
					<dim>26</dim>
				</port>
				<port id="1" precision="FP32">
					<dim>1</dim>
					<dim>512</dim>
					<dim>26</dim>
					<dim>26</dim>
				</port>
			</input>
			<output>
				<port id="2" precision="FP32" names="model_1/add_16/add:0">
					<dim>1</dim>
					<dim>512</dim>
					<dim>26</dim>
					<dim>26</dim>
				</port>
			</output>
		</layer>
		<layer id="240" name="Multiply_27558" type="Const" version="opset1">
			<data element_type="f32" shape="256, 512, 1, 1" offset="43741316" size="524288"/>
			<output>
				<port id="0" precision="FP32">
					<dim>256</dim>
					<dim>512</dim>
					<dim>1</dim>
					<dim>1</dim>
				</port>
			</output>
		</layer>
		<layer id="241" name="Multiply_26967" type="Convolution" version="opset1">
			<data strides="1, 1" dilations="1, 1" pads_begin="0, 0" pads_end="0, 0" auto_pad="same_upper"/>
			<rt_info>
				<attribute name="fused_names" version="0" value="batch_norm_output_buffer34, bias34, convolution_output37, mean6, scale34, var6"/>
			</rt_info>
			<input>
				<port id="0" precision="FP32">
					<dim>1</dim>
					<dim>512</dim>
					<dim>26</dim>
					<dim>26</dim>
				</port>
				<port id="1" precision="FP32">
					<dim>256</dim>
					<dim>512</dim>
					<dim>1</dim>
					<dim>1</dim>
				</port>
			</input>
			<output>
				<port id="2" precision="FP32">
					<dim>1</dim>
					<dim>256</dim>
					<dim>26</dim>
					<dim>26</dim>
				</port>
			</output>
		</layer>
		<layer id="242" name="Constant_26972" type="Const" version="opset1">
			<data element_type="f32" shape="1, 256, 1, 1" offset="44265604" size="1024"/>
			<output>
				<port id="0" precision="FP32">
					<dim>1</dim>
					<dim>256</dim>
					<dim>1</dim>
					<dim>1</dim>
				</port>
			</output>
		</layer>
		<layer id="243" name="batch_norm_output_buffer34" type="Add" version="opset1">
			<data auto_broadcast="numpy"/>
			<rt_info>
				<attribute name="fused_names" version="0" value="batch_norm_output_buffer34, bias34, mean6, scale34, var6"/>
			</rt_info>
			<input>
				<port id="0" precision="FP32">
					<dim>1</dim>
					<dim>256</dim>
					<dim>26</dim>
					<dim>26</dim>
				</port>
				<port id="1" precision="FP32">
					<dim>1</dim>
					<dim>256</dim>
					<dim>1</dim>
					<dim>1</dim>
				</port>
			</input>
			<output>
				<port id="2" precision="FP32" names="batch_norm_output_buffer34">
					<dim>1</dim>
					<dim>256</dim>
					<dim>26</dim>
					<dim>26</dim>
				</port>
			</output>
		</layer>
		<layer id="244" name="Constant_475" type="Const" version="opset1">
			<data element_type="f32" shape="1" offset="3584" size="4"/>
			<rt_info>
				<attribute name="fused_names" version="0" value="Constant_475"/>
			</rt_info>
			<output>
				<port id="0" precision="FP32">
					<dim>1</dim>
				</port>
			</output>
		</layer>
		<layer id="245" name="model_1/leaky_re_lu_38/LeakyRelu:0" type="PReLU" version="opset1">
			<rt_info>
				<attribute name="fused_names" version="0" value="model_1/leaky_re_lu_38/LeakyRelu:0"/>
			</rt_info>
			<input>
				<port id="0" precision="FP32">
					<dim>1</dim>
					<dim>256</dim>
					<dim>26</dim>
					<dim>26</dim>
				</port>
				<port id="1" precision="FP32">
					<dim>1</dim>
				</port>
			</input>
			<output>
				<port id="2" precision="FP32" names="model_1/leaky_re_lu_38/LeakyRelu:0">
					<dim>1</dim>
					<dim>256</dim>
					<dim>26</dim>
					<dim>26</dim>
				</port>
			</output>
		</layer>
		<layer id="246" name="Multiply_27567" type="Const" version="opset1">
			<data element_type="f32" shape="512, 256, 3, 3" offset="44266628" size="4718592"/>
			<output>
				<port id="0" precision="FP32">
					<dim>512</dim>
					<dim>256</dim>
					<dim>3</dim>
					<dim>3</dim>
				</port>
			</output>
		</layer>
		<layer id="247" name="Multiply_26974" type="Convolution" version="opset1">
			<data strides="1, 1" dilations="1, 1" pads_begin="0, 0" pads_end="0, 0" auto_pad="same_upper"/>
			<rt_info>
				<attribute name="fused_names" version="0" value="batch_norm_output_buffer33, bias33, convolution_output36, mean21, scale33, var21"/>
			</rt_info>
			<input>
				<port id="0" precision="FP32">
					<dim>1</dim>
					<dim>256</dim>
					<dim>26</dim>
					<dim>26</dim>
				</port>
				<port id="1" precision="FP32">
					<dim>512</dim>
					<dim>256</dim>
					<dim>3</dim>
					<dim>3</dim>
				</port>
			</input>
			<output>
				<port id="2" precision="FP32">
					<dim>1</dim>
					<dim>512</dim>
					<dim>26</dim>
					<dim>26</dim>
				</port>
			</output>
		</layer>
		<layer id="248" name="Constant_26979" type="Const" version="opset1">
			<data element_type="f32" shape="1, 512, 1, 1" offset="48985220" size="2048"/>
			<output>
				<port id="0" precision="FP32">
					<dim>1</dim>
					<dim>512</dim>
					<dim>1</dim>
					<dim>1</dim>
				</port>
			</output>
		</layer>
		<layer id="249" name="batch_norm_output_buffer33" type="Add" version="opset1">
			<data auto_broadcast="numpy"/>
			<rt_info>
				<attribute name="fused_names" version="0" value="batch_norm_output_buffer33, bias33, mean21, scale33, var21"/>
			</rt_info>
			<input>
				<port id="0" precision="FP32">
					<dim>1</dim>
					<dim>512</dim>
					<dim>26</dim>
					<dim>26</dim>
				</port>
				<port id="1" precision="FP32">
					<dim>1</dim>
					<dim>512</dim>
					<dim>1</dim>
					<dim>1</dim>
				</port>
			</input>
			<output>
				<port id="2" precision="FP32" names="batch_norm_output_buffer33">
					<dim>1</dim>
					<dim>512</dim>
					<dim>26</dim>
					<dim>26</dim>
				</port>
			</output>
		</layer>
		<layer id="250" name="Constant_480" type="Const" version="opset1">
			<data element_type="f32" shape="1" offset="3584" size="4"/>
			<rt_info>
				<attribute name="fused_names" version="0" value="Constant_480"/>
			</rt_info>
			<output>
				<port id="0" precision="FP32">
					<dim>1</dim>
				</port>
			</output>
		</layer>
		<layer id="251" name="model_1/leaky_re_lu_39/LeakyRelu:0" type="PReLU" version="opset1">
			<rt_info>
				<attribute name="fused_names" version="0" value="model_1/leaky_re_lu_39/LeakyRelu:0"/>
			</rt_info>
			<input>
				<port id="0" precision="FP32">
					<dim>1</dim>
					<dim>512</dim>
					<dim>26</dim>
					<dim>26</dim>
				</port>
				<port id="1" precision="FP32">
					<dim>1</dim>
				</port>
			</input>
			<output>
				<port id="2" precision="FP32" names="model_1/leaky_re_lu_39/LeakyRelu:0">
					<dim>1</dim>
					<dim>512</dim>
					<dim>26</dim>
					<dim>26</dim>
				</port>
			</output>
		</layer>
		<layer id="252" name="model_1/add_17/add:0" type="Add" version="opset1">
			<data auto_broadcast="numpy"/>
			<rt_info>
				<attribute name="fused_names" version="0" value="model_1/add_17/add:0"/>
			</rt_info>
			<input>
				<port id="0" precision="FP32">
					<dim>1</dim>
					<dim>512</dim>
					<dim>26</dim>
					<dim>26</dim>
				</port>
				<port id="1" precision="FP32">
					<dim>1</dim>
					<dim>512</dim>
					<dim>26</dim>
					<dim>26</dim>
				</port>
			</input>
			<output>
				<port id="2" precision="FP32" names="model_1/add_17/add:0">
					<dim>1</dim>
					<dim>512</dim>
					<dim>26</dim>
					<dim>26</dim>
				</port>
			</output>
		</layer>
		<layer id="253" name="Multiply_27576" type="Const" version="opset1">
			<data element_type="f32" shape="256, 512, 1, 1" offset="48987268" size="524288"/>
			<output>
				<port id="0" precision="FP32">
					<dim>256</dim>
					<dim>512</dim>
					<dim>1</dim>
					<dim>1</dim>
				</port>
			</output>
		</layer>
		<layer id="254" name="Multiply_26981" type="Convolution" version="opset1">
			<data strides="1, 1" dilations="1, 1" pads_begin="0, 0" pads_end="0, 0" auto_pad="same_upper"/>
			<rt_info>
				<attribute name="fused_names" version="0" value="batch_norm_output_buffer32, bias32, convolution_output35, mean6, scale32, var6"/>
			</rt_info>
			<input>
				<port id="0" precision="FP32">
					<dim>1</dim>
					<dim>512</dim>
					<dim>26</dim>
					<dim>26</dim>
				</port>
				<port id="1" precision="FP32">
					<dim>256</dim>
					<dim>512</dim>
					<dim>1</dim>
					<dim>1</dim>
				</port>
			</input>
			<output>
				<port id="2" precision="FP32">
					<dim>1</dim>
					<dim>256</dim>
					<dim>26</dim>
					<dim>26</dim>
				</port>
			</output>
		</layer>
		<layer id="255" name="Constant_26986" type="Const" version="opset1">
			<data element_type="f32" shape="1, 256, 1, 1" offset="49511556" size="1024"/>
			<output>
				<port id="0" precision="FP32">
					<dim>1</dim>
					<dim>256</dim>
					<dim>1</dim>
					<dim>1</dim>
				</port>
			</output>
		</layer>
		<layer id="256" name="batch_norm_output_buffer32" type="Add" version="opset1">
			<data auto_broadcast="numpy"/>
			<rt_info>
				<attribute name="fused_names" version="0" value="batch_norm_output_buffer32, bias32, mean6, scale32, var6"/>
			</rt_info>
			<input>
				<port id="0" precision="FP32">
					<dim>1</dim>
					<dim>256</dim>
					<dim>26</dim>
					<dim>26</dim>
				</port>
				<port id="1" precision="FP32">
					<dim>1</dim>
					<dim>256</dim>
					<dim>1</dim>
					<dim>1</dim>
				</port>
			</input>
			<output>
				<port id="2" precision="FP32" names="batch_norm_output_buffer32">
					<dim>1</dim>
					<dim>256</dim>
					<dim>26</dim>
					<dim>26</dim>
				</port>
			</output>
		</layer>
		<layer id="257" name="Constant_486" type="Const" version="opset1">
			<data element_type="f32" shape="1" offset="3584" size="4"/>
			<rt_info>
				<attribute name="fused_names" version="0" value="Constant_486"/>
			</rt_info>
			<output>
				<port id="0" precision="FP32">
					<dim>1</dim>
				</port>
			</output>
		</layer>
		<layer id="258" name="model_1/leaky_re_lu_40/LeakyRelu:0" type="PReLU" version="opset1">
			<rt_info>
				<attribute name="fused_names" version="0" value="model_1/leaky_re_lu_40/LeakyRelu:0"/>
			</rt_info>
			<input>
				<port id="0" precision="FP32">
					<dim>1</dim>
					<dim>256</dim>
					<dim>26</dim>
					<dim>26</dim>
				</port>
				<port id="1" precision="FP32">
					<dim>1</dim>
				</port>
			</input>
			<output>
				<port id="2" precision="FP32" names="model_1/leaky_re_lu_40/LeakyRelu:0">
					<dim>1</dim>
					<dim>256</dim>
					<dim>26</dim>
					<dim>26</dim>
				</port>
			</output>
		</layer>
		<layer id="259" name="Multiply_27585" type="Const" version="opset1">
			<data element_type="f32" shape="512, 256, 3, 3" offset="49512580" size="4718592"/>
			<output>
				<port id="0" precision="FP32">
					<dim>512</dim>
					<dim>256</dim>
					<dim>3</dim>
					<dim>3</dim>
				</port>
			</output>
		</layer>
		<layer id="260" name="Multiply_26988" type="Convolution" version="opset1">
			<data strides="1, 1" dilations="1, 1" pads_begin="0, 0" pads_end="0, 0" auto_pad="same_upper"/>
			<rt_info>
				<attribute name="fused_names" version="0" value="batch_norm_output_buffer31, bias31, convolution_output34, mean21, scale31, var21"/>
			</rt_info>
			<input>
				<port id="0" precision="FP32">
					<dim>1</dim>
					<dim>256</dim>
					<dim>26</dim>
					<dim>26</dim>
				</port>
				<port id="1" precision="FP32">
					<dim>512</dim>
					<dim>256</dim>
					<dim>3</dim>
					<dim>3</dim>
				</port>
			</input>
			<output>
				<port id="2" precision="FP32">
					<dim>1</dim>
					<dim>512</dim>
					<dim>26</dim>
					<dim>26</dim>
				</port>
			</output>
		</layer>
		<layer id="261" name="Constant_26993" type="Const" version="opset1">
			<data element_type="f32" shape="1, 512, 1, 1" offset="54231172" size="2048"/>
			<output>
				<port id="0" precision="FP32">
					<dim>1</dim>
					<dim>512</dim>
					<dim>1</dim>
					<dim>1</dim>
				</port>
			</output>
		</layer>
		<layer id="262" name="batch_norm_output_buffer31" type="Add" version="opset1">
			<data auto_broadcast="numpy"/>
			<rt_info>
				<attribute name="fused_names" version="0" value="batch_norm_output_buffer31, bias31, mean21, scale31, var21"/>
			</rt_info>
			<input>
				<port id="0" precision="FP32">
					<dim>1</dim>
					<dim>512</dim>
					<dim>26</dim>
					<dim>26</dim>
				</port>
				<port id="1" precision="FP32">
					<dim>1</dim>
					<dim>512</dim>
					<dim>1</dim>
					<dim>1</dim>
				</port>
			</input>
			<output>
				<port id="2" precision="FP32" names="batch_norm_output_buffer31">
					<dim>1</dim>
					<dim>512</dim>
					<dim>26</dim>
					<dim>26</dim>
				</port>
			</output>
		</layer>
		<layer id="263" name="Constant_491" type="Const" version="opset1">
			<data element_type="f32" shape="1" offset="3584" size="4"/>
			<rt_info>
				<attribute name="fused_names" version="0" value="Constant_491"/>
			</rt_info>
			<output>
				<port id="0" precision="FP32">
					<dim>1</dim>
				</port>
			</output>
		</layer>
		<layer id="264" name="model_1/leaky_re_lu_41/LeakyRelu:0" type="PReLU" version="opset1">
			<rt_info>
				<attribute name="fused_names" version="0" value="model_1/leaky_re_lu_41/LeakyRelu:0"/>
			</rt_info>
			<input>
				<port id="0" precision="FP32">
					<dim>1</dim>
					<dim>512</dim>
					<dim>26</dim>
					<dim>26</dim>
				</port>
				<port id="1" precision="FP32">
					<dim>1</dim>
				</port>
			</input>
			<output>
				<port id="2" precision="FP32" names="model_1/leaky_re_lu_41/LeakyRelu:0">
					<dim>1</dim>
					<dim>512</dim>
					<dim>26</dim>
					<dim>26</dim>
				</port>
			</output>
		</layer>
		<layer id="265" name="model_1/add_18/add:0" type="Add" version="opset1">
			<data auto_broadcast="numpy"/>
			<rt_info>
				<attribute name="fused_names" version="0" value="model_1/add_18/add:0"/>
			</rt_info>
			<input>
				<port id="0" precision="FP32">
					<dim>1</dim>
					<dim>512</dim>
					<dim>26</dim>
					<dim>26</dim>
				</port>
				<port id="1" precision="FP32">
					<dim>1</dim>
					<dim>512</dim>
					<dim>26</dim>
					<dim>26</dim>
				</port>
			</input>
			<output>
				<port id="2" precision="FP32" names="model_1/add_18/add:0">
					<dim>1</dim>
					<dim>512</dim>
					<dim>26</dim>
					<dim>26</dim>
				</port>
			</output>
		</layer>
		<layer id="266" name="Multiply_27594" type="Const" version="opset1">
			<data element_type="f32" shape="256, 512, 1, 1" offset="54233220" size="524288"/>
			<output>
				<port id="0" precision="FP32">
					<dim>256</dim>
					<dim>512</dim>
					<dim>1</dim>
					<dim>1</dim>
				</port>
			</output>
		</layer>
		<layer id="267" name="Multiply_26995" type="Convolution" version="opset1">
			<data strides="1, 1" dilations="1, 1" pads_begin="0, 0" pads_end="0, 0" auto_pad="same_upper"/>
			<rt_info>
				<attribute name="fused_names" version="0" value="batch_norm_output_buffer30, bias30, convolution_output33, mean6, scale30, var6"/>
			</rt_info>
			<input>
				<port id="0" precision="FP32">
					<dim>1</dim>
					<dim>512</dim>
					<dim>26</dim>
					<dim>26</dim>
				</port>
				<port id="1" precision="FP32">
					<dim>256</dim>
					<dim>512</dim>
					<dim>1</dim>
					<dim>1</dim>
				</port>
			</input>
			<output>
				<port id="2" precision="FP32">
					<dim>1</dim>
					<dim>256</dim>
					<dim>26</dim>
					<dim>26</dim>
				</port>
			</output>
		</layer>
		<layer id="268" name="Constant_27000" type="Const" version="opset1">
			<data element_type="f32" shape="1, 256, 1, 1" offset="54757508" size="1024"/>
			<output>
				<port id="0" precision="FP32">
					<dim>1</dim>
					<dim>256</dim>
					<dim>1</dim>
					<dim>1</dim>
				</port>
			</output>
		</layer>
		<layer id="269" name="batch_norm_output_buffer30" type="Add" version="opset1">
			<data auto_broadcast="numpy"/>
			<rt_info>
				<attribute name="fused_names" version="0" value="batch_norm_output_buffer30, bias30, mean6, scale30, var6"/>
			</rt_info>
			<input>
				<port id="0" precision="FP32">
					<dim>1</dim>
					<dim>256</dim>
					<dim>26</dim>
					<dim>26</dim>
				</port>
				<port id="1" precision="FP32">
					<dim>1</dim>
					<dim>256</dim>
					<dim>1</dim>
					<dim>1</dim>
				</port>
			</input>
			<output>
				<port id="2" precision="FP32" names="batch_norm_output_buffer30">
					<dim>1</dim>
					<dim>256</dim>
					<dim>26</dim>
					<dim>26</dim>
				</port>
			</output>
		</layer>
		<layer id="270" name="Constant_497" type="Const" version="opset1">
			<data element_type="f32" shape="1" offset="3584" size="4"/>
			<rt_info>
				<attribute name="fused_names" version="0" value="Constant_497"/>
			</rt_info>
			<output>
				<port id="0" precision="FP32">
					<dim>1</dim>
				</port>
			</output>
		</layer>
		<layer id="271" name="model_1/leaky_re_lu_42/LeakyRelu:0" type="PReLU" version="opset1">
			<rt_info>
				<attribute name="fused_names" version="0" value="model_1/leaky_re_lu_42/LeakyRelu:0"/>
			</rt_info>
			<input>
				<port id="0" precision="FP32">
					<dim>1</dim>
					<dim>256</dim>
					<dim>26</dim>
					<dim>26</dim>
				</port>
				<port id="1" precision="FP32">
					<dim>1</dim>
				</port>
			</input>
			<output>
				<port id="2" precision="FP32" names="model_1/leaky_re_lu_42/LeakyRelu:0">
					<dim>1</dim>
					<dim>256</dim>
					<dim>26</dim>
					<dim>26</dim>
				</port>
			</output>
		</layer>
		<layer id="272" name="Multiply_27603" type="Const" version="opset1">
			<data element_type="f32" shape="512, 256, 3, 3" offset="54758532" size="4718592"/>
			<output>
				<port id="0" precision="FP32">
					<dim>512</dim>
					<dim>256</dim>
					<dim>3</dim>
					<dim>3</dim>
				</port>
			</output>
		</layer>
		<layer id="273" name="Multiply_27002" type="Convolution" version="opset1">
			<data strides="1, 1" dilations="1, 1" pads_begin="0, 0" pads_end="0, 0" auto_pad="same_upper"/>
			<rt_info>
				<attribute name="fused_names" version="0" value="batch_norm_output_buffer29, bias29, convolution_output32, mean21, scale29, var21"/>
			</rt_info>
			<input>
				<port id="0" precision="FP32">
					<dim>1</dim>
					<dim>256</dim>
					<dim>26</dim>
					<dim>26</dim>
				</port>
				<port id="1" precision="FP32">
					<dim>512</dim>
					<dim>256</dim>
					<dim>3</dim>
					<dim>3</dim>
				</port>
			</input>
			<output>
				<port id="2" precision="FP32">
					<dim>1</dim>
					<dim>512</dim>
					<dim>26</dim>
					<dim>26</dim>
				</port>
			</output>
		</layer>
		<layer id="274" name="Constant_27007" type="Const" version="opset1">
			<data element_type="f32" shape="1, 512, 1, 1" offset="59477124" size="2048"/>
			<output>
				<port id="0" precision="FP32">
					<dim>1</dim>
					<dim>512</dim>
					<dim>1</dim>
					<dim>1</dim>
				</port>
			</output>
		</layer>
		<layer id="275" name="batch_norm_output_buffer29" type="Add" version="opset1">
			<data auto_broadcast="numpy"/>
			<rt_info>
				<attribute name="fused_names" version="0" value="batch_norm_output_buffer29, bias29, mean21, scale29, var21"/>
			</rt_info>
			<input>
				<port id="0" precision="FP32">
					<dim>1</dim>
					<dim>512</dim>
					<dim>26</dim>
					<dim>26</dim>
				</port>
				<port id="1" precision="FP32">
					<dim>1</dim>
					<dim>512</dim>
					<dim>1</dim>
					<dim>1</dim>
				</port>
			</input>
			<output>
				<port id="2" precision="FP32" names="batch_norm_output_buffer29">
					<dim>1</dim>
					<dim>512</dim>
					<dim>26</dim>
					<dim>26</dim>
				</port>
			</output>
		</layer>
		<layer id="276" name="Constant_502" type="Const" version="opset1">
			<data element_type="f32" shape="1" offset="3584" size="4"/>
			<rt_info>
				<attribute name="fused_names" version="0" value="Constant_502"/>
			</rt_info>
			<output>
				<port id="0" precision="FP32">
					<dim>1</dim>
				</port>
			</output>
		</layer>
		<layer id="277" name="model_1/leaky_re_lu_43/LeakyRelu:0" type="PReLU" version="opset1">
			<rt_info>
				<attribute name="fused_names" version="0" value="model_1/leaky_re_lu_43/LeakyRelu:0"/>
			</rt_info>
			<input>
				<port id="0" precision="FP32">
					<dim>1</dim>
					<dim>512</dim>
					<dim>26</dim>
					<dim>26</dim>
				</port>
				<port id="1" precision="FP32">
					<dim>1</dim>
				</port>
			</input>
			<output>
				<port id="2" precision="FP32" names="model_1/leaky_re_lu_43/LeakyRelu:0">
					<dim>1</dim>
					<dim>512</dim>
					<dim>26</dim>
					<dim>26</dim>
				</port>
			</output>
		</layer>
		<layer id="278" name="model_1/add_19/add:0" type="Add" version="opset1">
			<data auto_broadcast="numpy"/>
			<rt_info>
				<attribute name="fused_names" version="0" value="model_1/add_19/add:0"/>
			</rt_info>
			<input>
				<port id="0" precision="FP32">
					<dim>1</dim>
					<dim>512</dim>
					<dim>26</dim>
					<dim>26</dim>
				</port>
				<port id="1" precision="FP32">
					<dim>1</dim>
					<dim>512</dim>
					<dim>26</dim>
					<dim>26</dim>
				</port>
			</input>
			<output>
				<port id="2" precision="FP32" names="model_1/add_19/add:0">
					<dim>1</dim>
					<dim>512</dim>
					<dim>26</dim>
					<dim>26</dim>
				</port>
			</output>
		</layer>
		<layer id="279" name="Multiply_27612" type="Const" version="opset1">
			<data element_type="f32" shape="1024, 512, 3, 3" offset="59479172" size="18874368"/>
			<output>
				<port id="0" precision="FP32">
					<dim>1024</dim>
					<dim>512</dim>
					<dim>3</dim>
					<dim>3</dim>
				</port>
			</output>
		</layer>
		<layer id="280" name="Multiply_27009" type="Convolution" version="opset1">
			<data strides="2, 2" dilations="1, 1" pads_begin="1, 1" pads_end="0, 0" auto_pad="explicit"/>
			<rt_info>
				<attribute name="fused_names" version="0" value="batch_norm_output_buffer28, bias28, convolution_output31, mean22, scale28, var22"/>
			</rt_info>
			<input>
				<port id="0" precision="FP32">
					<dim>1</dim>
					<dim>512</dim>
					<dim>26</dim>
					<dim>26</dim>
				</port>
				<port id="1" precision="FP32">
					<dim>1024</dim>
					<dim>512</dim>
					<dim>3</dim>
					<dim>3</dim>
				</port>
			</input>
			<output>
				<port id="2" precision="FP32">
					<dim>1</dim>
					<dim>1024</dim>
					<dim>13</dim>
					<dim>13</dim>
				</port>
			</output>
		</layer>
		<layer id="281" name="Constant_27014" type="Const" version="opset1">
			<data element_type="f32" shape="1, 1024, 1, 1" offset="78353540" size="4096"/>
			<output>
				<port id="0" precision="FP32">
					<dim>1</dim>
					<dim>1024</dim>
					<dim>1</dim>
					<dim>1</dim>
				</port>
			</output>
		</layer>
		<layer id="282" name="batch_norm_output_buffer28" type="Add" version="opset1">
			<data auto_broadcast="numpy"/>
			<rt_info>
				<attribute name="fused_names" version="0" value="batch_norm_output_buffer28, bias28, mean22, scale28, var22"/>
			</rt_info>
			<input>
				<port id="0" precision="FP32">
					<dim>1</dim>
					<dim>1024</dim>
					<dim>13</dim>
					<dim>13</dim>
				</port>
				<port id="1" precision="FP32">
					<dim>1</dim>
					<dim>1024</dim>
					<dim>1</dim>
					<dim>1</dim>
				</port>
			</input>
			<output>
				<port id="2" precision="FP32" names="batch_norm_output_buffer28">
					<dim>1</dim>
					<dim>1024</dim>
					<dim>13</dim>
					<dim>13</dim>
				</port>
			</output>
		</layer>
		<layer id="283" name="Constant_508" type="Const" version="opset1">
			<data element_type="f32" shape="1" offset="3584" size="4"/>
			<rt_info>
				<attribute name="fused_names" version="0" value="Constant_508"/>
			</rt_info>
			<output>
				<port id="0" precision="FP32">
					<dim>1</dim>
				</port>
			</output>
		</layer>
		<layer id="284" name="model_1/leaky_re_lu_44/LeakyRelu:0" type="PReLU" version="opset1">
			<rt_info>
				<attribute name="fused_names" version="0" value="model_1/leaky_re_lu_44/LeakyRelu:0"/>
			</rt_info>
			<input>
				<port id="0" precision="FP32">
					<dim>1</dim>
					<dim>1024</dim>
					<dim>13</dim>
					<dim>13</dim>
				</port>
				<port id="1" precision="FP32">
					<dim>1</dim>
				</port>
			</input>
			<output>
				<port id="2" precision="FP32" names="model_1/leaky_re_lu_44/LeakyRelu:0">
					<dim>1</dim>
					<dim>1024</dim>
					<dim>13</dim>
					<dim>13</dim>
				</port>
			</output>
		</layer>
		<layer id="285" name="Multiply_27621" type="Const" version="opset1">
			<data element_type="f32" shape="512, 1024, 1, 1" offset="78357636" size="2097152"/>
			<output>
				<port id="0" precision="FP32">
					<dim>512</dim>
					<dim>1024</dim>
					<dim>1</dim>
					<dim>1</dim>
				</port>
			</output>
		</layer>
		<layer id="286" name="Multiply_27016" type="Convolution" version="opset1">
			<data strides="1, 1" dilations="1, 1" pads_begin="0, 0" pads_end="0, 0" auto_pad="same_upper"/>
			<rt_info>
				<attribute name="fused_names" version="0" value="batch_norm_output_buffer27, bias27, convolution_output30, mean21, scale27, var21"/>
			</rt_info>
			<input>
				<port id="0" precision="FP32">
					<dim>1</dim>
					<dim>1024</dim>
					<dim>13</dim>
					<dim>13</dim>
				</port>
				<port id="1" precision="FP32">
					<dim>512</dim>
					<dim>1024</dim>
					<dim>1</dim>
					<dim>1</dim>
				</port>
			</input>
			<output>
				<port id="2" precision="FP32">
					<dim>1</dim>
					<dim>512</dim>
					<dim>13</dim>
					<dim>13</dim>
				</port>
			</output>
		</layer>
		<layer id="287" name="Constant_27021" type="Const" version="opset1">
			<data element_type="f32" shape="1, 512, 1, 1" offset="80454788" size="2048"/>
			<output>
				<port id="0" precision="FP32">
					<dim>1</dim>
					<dim>512</dim>
					<dim>1</dim>
					<dim>1</dim>
				</port>
			</output>
		</layer>
		<layer id="288" name="batch_norm_output_buffer27" type="Add" version="opset1">
			<data auto_broadcast="numpy"/>
			<rt_info>
				<attribute name="fused_names" version="0" value="batch_norm_output_buffer27, bias27, mean21, scale27, var21"/>
			</rt_info>
			<input>
				<port id="0" precision="FP32">
					<dim>1</dim>
					<dim>512</dim>
					<dim>13</dim>
					<dim>13</dim>
				</port>
				<port id="1" precision="FP32">
					<dim>1</dim>
…
		<edge from-layer="287" from-port="0" to-layer="288" to-port="1"/>
		<edge from-layer="288" from-port="2" to-layer="290" to-port="0"/>
		<edge from-layer="289" from-port="0" to-layer="290" to-port="1"/>
		<edge from-layer="290" from-port="2" to-layer="292" to-port="0"/>
		<edge from-layer="291" from-port="0" to-layer="292" to-port="1"/>
		<edge from-layer="292" from-port="2" to-layer="294" to-port="0"/>
		<edge from-layer="293" from-port="0" to-layer="294" to-port="1"/>
		<edge from-layer="294" from-port="2" to-layer="296" to-port="0"/>
		<edge from-layer="295" from-port="0" to-layer="296" to-port="1"/>
		<edge from-layer="296" from-port="2" to-layer="297" to-port="1"/>
		<edge from-layer="297" from-port="2" to-layer="299" to-port="0"/>
		<edge from-layer="297" from-port="2" to-layer="310" to-port="0"/>
		<edge from-layer="298" from-port="0" to-layer="299" to-port="1"/>
		<edge from-layer="299" from-port="2" to-layer="301" to-port="0"/>
		<edge from-layer="300" from-port="0" to-layer="301" to-port="1"/>
		<edge from-layer="301" from-port="2" to-layer="303" to-port="0"/>
		<edge from-layer="302" from-port="0" to-layer="303" to-port="1"/>
		<edge from-layer="303" from-port="2" to-layer="305" to-port="0"/>
		<edge from-layer="304" from-port="0" to-layer="305" to-port="1"/>
		<edge from-layer="305" from-port="2" to-layer="307" to-port="0"/>
		<edge from-layer="306" from-port="0" to-layer="307" to-port="1"/>
		<edge from-layer="307" from-port="2" to-layer="309" to-port="0"/>
		<edge from-layer="308" from-port="0" to-layer="309" to-port="1"/>
		<edge from-layer="309" from-port="2" to-layer="310" to-port="1"/>
		<edge from-layer="310" from-port="2" to-layer="312" to-port="0"/>
		<edge from-layer="310" from-port="2" to-layer="323" to-port="0"/>
		<edge from-layer="311" from-port="0" to-layer="312" to-port="1"/>
		<edge from-layer="312" from-port="2" to-layer="314" to-port="0"/>
		<edge from-layer="313" from-port="0" to-layer="314" to-port="1"/>
		<edge from-layer="314" from-port="2" to-layer="316" to-port="0"/>
		<edge from-layer="315" from-port="0" to-layer="316" to-port="1"/>
		<edge from-layer="316" from-port="2" to-layer="318" to-port="0"/>
		<edge from-layer="317" from-port="0" to-layer="318" to-port="1"/>
		<edge from-layer="318" from-port="2" to-layer="320" to-port="0"/>
		<edge from-layer="319" from-port="0" to-layer="320" to-port="1"/>
		<edge from-layer="320" from-port="2" to-layer="322" to-port="0"/>
		<edge from-layer="321" from-port="0" to-layer="322" to-port="1"/>
		<edge from-layer="322" from-port="2" to-layer="323" to-port="1"/>
		<edge from-layer="323" from-port="2" to-layer="325" to-port="0"/>
		<edge from-layer="323" from-port="2" to-layer="336" to-port="0"/>
		<edge from-layer="324" from-port="0" to-layer="325" to-port="1"/>
		<edge from-layer="325" from-port="2" to-layer="327" to-port="0"/>
		<edge from-layer="326" from-port="0" to-layer="327" to-port="1"/>
		<edge from-layer="327" from-port="2" to-layer="329" to-port="0"/>
		<edge from-layer="328" from-port="0" to-layer="329" to-port="1"/>
		<edge from-layer="329" from-port="2" to-layer="331" to-port="0"/>
		<edge from-layer="330" from-port="0" to-layer="331" to-port="1"/>
		<edge from-layer="331" from-port="2" to-layer="333" to-port="0"/>
		<edge from-layer="332" from-port="0" to-layer="333" to-port="1"/>
		<edge from-layer="333" from-port="2" to-layer="335" to-port="0"/>
		<edge from-layer="334" from-port="0" to-layer="335" to-port="1"/>
		<edge from-layer="335" from-port="2" to-layer="336" to-port="1"/>
		<edge from-layer="336" from-port="2" to-layer="338" to-port="0"/>
		<edge from-layer="337" from-port="0" to-layer="338" to-port="1"/>
		<edge from-layer="338" from-port="2" to-layer="340" to-port="0"/>
		<edge from-layer="339" from-port="0" to-layer="340" to-port="1"/>
		<edge from-layer="340" from-port="2" to-layer="342" to-port="0"/>
		<edge from-layer="341" from-port="0" to-layer="342" to-port="1"/>
		<edge from-layer="342" from-port="2" to-layer="344" to-port="0"/>
		<edge from-layer="343" from-port="0" to-layer="344" to-port="1"/>
		<edge from-layer="344" from-port="2" to-layer="346" to-port="0"/>
		<edge from-layer="345" from-port="0" to-layer="346" to-port="1"/>
		<edge from-layer="346" from-port="2" to-layer="348" to-port="0"/>
		<edge from-layer="347" from-port="0" to-layer="348" to-port="1"/>
		<edge from-layer="348" from-port="2" to-layer="350" to-port="0"/>
		<edge from-layer="349" from-port="0" to-layer="350" to-port="1"/>
		<edge from-layer="350" from-port="2" to-layer="352" to-port="0"/>
		<edge from-layer="351" from-port="0" to-layer="352" to-port="1"/>
		<edge from-layer="352" from-port="2" to-layer="354" to-port="0"/>
		<edge from-layer="353" from-port="0" to-layer="354" to-port="1"/>
		<edge from-layer="354" from-port="2" to-layer="356" to-port="0"/>
		<edge from-layer="355" from-port="0" to-layer="356" to-port="1"/>
		<edge from-layer="356" from-port="2" to-layer="358" to-port="0"/>
		<edge from-layer="357" from-port="0" to-layer="358" to-port="1"/>
		<edge from-layer="358" from-port="2" to-layer="360" to-port="0"/>
		<edge from-layer="359" from-port="0" to-layer="360" to-port="1"/>
		<edge from-layer="360" from-port="2" to-layer="362" to-port="0"/>
		<edge from-layer="361" from-port="0" to-layer="362" to-port="1"/>
		<edge from-layer="362" from-port="2" to-layer="364" to-port="0"/>
		<edge from-layer="363" from-port="0" to-layer="364" to-port="1"/>
		<edge from-layer="364" from-port="2" to-layer="366" to-port="0"/>
		<edge from-layer="365" from-port="0" to-layer="366" to-port="1"/>
		<edge from-layer="366" from-port="2" to-layer="503" to-port="0"/>
		<edge from-layer="366" from-port="2" to-layer="368" to-port="0"/>
		<edge from-layer="367" from-port="0" to-layer="368" to-port="1"/>
		<edge from-layer="368" from-port="2" to-layer="370" to-port="0"/>
		<edge from-layer="369" from-port="0" to-layer="370" to-port="1"/>
		<edge from-layer="370" from-port="2" to-layer="372" to-port="0"/>
		<edge from-layer="371" from-port="0" to-layer="372" to-port="1"/>
		<edge from-layer="372" from-port="2" to-layer="374" to-port="0"/>
		<edge from-layer="373" from-port="0" to-layer="374" to-port="1"/>
		<edge from-layer="374" from-port="2" to-layer="376" to-port="0"/>
		<edge from-layer="375" from-port="0" to-layer="376" to-port="1"/>
		<edge from-layer="376" from-port="2" to-layer="378" to-port="0"/>
		<edge from-layer="376" from-port="2" to-layer="380" to-port="0"/>
		<edge from-layer="377" from-port="0" to-layer="378" to-port="1"/>
		<edge from-layer="378" from-port="2" to-layer="404" to-port="0"/>
		<edge from-layer="379" from-port="0" to-layer="402" to-port="0"/>
		<edge from-layer="379" from-port="0" to-layer="713" to-port="0"/>
		<edge from-layer="379" from-port="0" to-layer="572" to-port="0"/>
		<edge from-layer="380" from-port="1" to-layer="383" to-port="0"/>
		<edge from-layer="381" from-port="0" to-layer="700" to-port="1"/>
		<edge from-layer="381" from-port="0" to-layer="383" to-port="1"/>
		<edge from-layer="381" from-port="0" to-layer="559" to-port="1"/>
		<edge from-layer="382" from-port="0" to-layer="383" to-port="2"/>
		<edge from-layer="383" from-port="3" to-layer="384" to-port="0"/>
		<edge from-layer="384" from-port="1" to-layer="387" to-port="0"/>
		<edge from-layer="385" from-port="0" to-layer="703" to-port="2"/>
		<edge from-layer="385" from-port="0" to-layer="708" to-port="3"/>
		<edge from-layer="385" from-port="0" to-layer="708" to-port="1"/>
		<edge from-layer="385" from-port="0" to-layer="703" to-port="3"/>
		<edge from-layer="385" from-port="0" to-layer="561" to-port="3"/>
		<edge from-layer="385" from-port="0" to-layer="702" to-port="3"/>
		<edge from-layer="385" from-port="0" to-layer="702" to-port="1"/>
		<edge from-layer="385" from-port="0" to-layer="387" to-port="1"/>
		<edge from-layer="385" from-port="0" to-layer="561" to-port="1"/>
		<edge from-layer="385" from-port="0" to-layer="567" to-port="3"/>
		<edge from-layer="385" from-port="0" to-layer="567" to-port="1"/>
		<edge from-layer="385" from-port="0" to-layer="562" to-port="3"/>
		<edge from-layer="385" from-port="0" to-layer="562" to-port="2"/>
		<edge from-layer="385" from-port="0" to-layer="395" to-port="3"/>
		<edge from-layer="385" from-port="0" to-layer="387" to-port="3"/>
		<edge from-layer="385" from-port="0" to-layer="395" to-port="1"/>
		<edge from-layer="385" from-port="0" to-layer="389" to-port="2"/>
		<edge from-layer="385" from-port="0" to-layer="389" to-port="3"/>
		<edge from-layer="386" from-port="0" to-layer="387" to-port="2"/>
		<edge from-layer="386" from-port="0" to-layer="561" to-port="2"/>
		<edge from-layer="386" from-port="0" to-layer="702" to-port="2"/>
		<edge from-layer="387" from-port="4" to-layer="436" to-port="0"/>
		<edge from-layer="387" from-port="4" to-layer="395" to-port="0"/>
		<edge from-layer="387" from-port="4" to-layer="444" to-port="0"/>
		<edge from-layer="387" from-port="4" to-layer="389" to-port="0"/>
		<edge from-layer="388" from-port="0" to-layer="562" to-port="1"/>
		<edge from-layer="388" from-port="0" to-layer="703" to-port="1"/>
		<edge from-layer="388" from-port="0" to-layer="389" to-port="1"/>
		<edge from-layer="389" from-port="4" to-layer="391" to-port="0"/>
		<edge from-layer="390" from-port="0" to-layer="391" to-port="1"/>
		<edge from-layer="391" from-port="2" to-layer="422" to-port="0"/>
		<edge from-layer="391" from-port="2" to-layer="393" to-port="0"/>
		<edge from-layer="392" from-port="0" to-layer="393" to-port="1"/>
		<edge from-layer="393" from-port="2" to-layer="402" to-port="1"/>
		<edge from-layer="393" from-port="2" to-layer="419" to-port="0"/>
		<edge from-layer="394" from-port="0" to-layer="395" to-port="2"/>
		<edge from-layer="394" from-port="0" to-layer="567" to-port="2"/>
		<edge from-layer="394" from-port="0" to-layer="708" to-port="2"/>
		<edge from-layer="395" from-port="4" to-layer="397" to-port="0"/>
		<edge from-layer="396" from-port="0" to-layer="397" to-port="1"/>
		<edge from-layer="397" from-port="2" to-layer="410" to-port="0"/>
		<edge from-layer="397" from-port="2" to-layer="399" to-port="0"/>
		<edge from-layer="398" from-port="0" to-layer="399" to-port="1"/>
		<edge from-layer="399" from-port="2" to-layer="428" to-port="1"/>
		<edge from-layer="399" from-port="2" to-layer="402" to-port="2"/>
		<edge from-layer="400" from-port="0" to-layer="572" to-port="3"/>
		<edge from-layer="400" from-port="0" to-layer="402" to-port="3"/>
		<edge from-layer="400" from-port="0" to-layer="713" to-port="3"/>
		<edge from-layer="401" from-port="0" to-layer="572" to-port="4"/>
		<edge from-layer="401" from-port="0" to-layer="713" to-port="4"/>
		<edge from-layer="401" from-port="0" to-layer="402" to-port="4"/>
		<edge from-layer="402" from-port="5" to-layer="403" to-port="0"/>
		<edge from-layer="403" from-port="1" to-layer="404" to-port="1"/>
		<edge from-layer="404" from-port="2" to-layer="791" to-port="0"/>
		<edge from-layer="404" from-port="2" to-layer="796" to-port="0"/>
		<edge from-layer="404" from-port="2" to-layer="465" to-port="0"/>
		<edge from-layer="404" from-port="2" to-layer="408" to-port="0"/>
		<edge from-layer="405" from-port="0" to-layer="408" to-port="1"/>
		<edge from-layer="406" from-port="0" to-layer="408" to-port="2"/>
		<edge from-layer="407" from-port="0" to-layer="408" to-port="3"/>
		<edge from-layer="408" from-port="4" to-layer="409" to-port="0"/>
		<edge from-layer="409" from-port="1" to-layer="433" to-port="0"/>
		<edge from-layer="410" from-port="1" to-layer="411" to-port="0"/>
		<edge from-layer="411" from-port="1" to-layer="412" to-port="0"/>
		<edge from-layer="412" from-port="1" to-layer="415" to-port="0"/>
		<edge from-layer="413" from-port="0" to-layer="583" to-port="1"/>
		<edge from-layer="413" from-port="0" to-layer="724" to-port="1"/>
		<edge from-layer="413" from-port="0" to-layer="425" to-port="1"/>
		<edge from-layer="413" from-port="0" to-layer="591" to-port="1"/>
		<edge from-layer="413" from-port="0" to-layer="732" to-port="1"/>
		<edge from-layer="413" from-port="0" to-layer="415" to-port="1"/>
		<edge from-layer="414" from-port="0" to-layer="724" to-port="2"/>
		<edge from-layer="414" from-port="0" to-layer="425" to-port="2"/>
		<edge from-layer="414" from-port="0" to-layer="732" to-port="2"/>
		<edge from-layer="414" from-port="0" to-layer="591" to-port="2"/>
		<edge from-layer="414" from-port="0" to-layer="583" to-port="2"/>
		<edge from-layer="414" from-port="0" to-layer="415" to-port="2"/>
		<edge from-layer="415" from-port="4" to-layer="417" to-port="0"/>
		<edge from-layer="416" from-port="0" to-layer="417" to-port="1"/>
		<edge from-layer="416" from-port="0" to-layer="584" to-port="1"/>
		<edge from-layer="416" from-port="0" to-layer="725" to-port="1"/>
		<edge from-layer="417" from-port="2" to-layer="421" to-port="0"/>
		<edge from-layer="418" from-port="0" to-layer="734" to-port="2"/>
		<edge from-layer="418" from-port="0" to-layer="419" to-port="1"/>
		<edge from-layer="418" from-port="0" to-layer="419" to-port="2"/>
		<edge from-layer="418" from-port="0" to-layer="585" to-port="1"/>
		<edge from-layer="418" from-port="0" to-layer="585" to-port="2"/>
		<edge from-layer="418" from-port="0" to-layer="585" to-port="3"/>
		<edge from-layer="418" from-port="0" to-layer="593" to-port="0"/>
		<edge from-layer="418" from-port="0" to-layer="593" to-port="2"/>
		<edge from-layer="418" from-port="0" to-layer="593" to-port="3"/>
		<edge from-layer="418" from-port="0" to-layer="419" to-port="3"/>
		<edge from-layer="418" from-port="0" to-layer="428" to-port="0"/>
		<edge from-layer="418" from-port="0" to-layer="428" to-port="3"/>
		<edge from-layer="418" from-port="0" to-layer="428" to-port="2"/>
		<edge from-layer="418" from-port="0" to-layer="726" to-port="1"/>
		<edge from-layer="418" from-port="0" to-layer="726" to-port="2"/>
		<edge from-layer="418" from-port="0" to-layer="726" to-port="3"/>
		<edge from-layer="418" from-port="0" to-layer="734" to-port="0"/>
		<edge from-layer="418" from-port="0" to-layer="734" to-port="3"/>
		<edge from-layer="419" from-port="4" to-layer="420" to-port="0"/>
		<edge from-layer="420" from-port="1" to-layer="421" to-port="1"/>
		<edge from-layer="421" from-port="2" to-layer="431" to-port="0"/>
		<edge from-layer="422" from-port="1" to-layer="423" to-port="0"/>
		<edge from-layer="423" from-port="1" to-layer="424" to-port="0"/>
		<edge from-layer="424" from-port="1" to-layer="425" to-port="0"/>
		<edge from-layer="425" from-port="4" to-layer="427" to-port="0"/>
		<edge from-layer="426" from-port="0" to-layer="733" to-port="1"/>
		<edge from-layer="426" from-port="0" to-layer="592" to-port="1"/>
		<edge from-layer="426" from-port="0" to-layer="427" to-port="1"/>
		<edge from-layer="427" from-port="2" to-layer="430" to-port="0"/>
		<edge from-layer="428" from-port="4" to-layer="429" to-port="0"/>
		<edge from-layer="429" from-port="1" to-layer="430" to-port="1"/>
		<edge from-layer="430" from-port="2" to-layer="431" to-port="1"/>
		<edge from-layer="431" from-port="2" to-layer="432" to-port="0"/>
		<edge from-layer="432" from-port="1" to-layer="433" to-port="1"/>
		<edge from-layer="433" from-port="2" to-layer="438" to-port="0"/>
		<edge from-layer="434" from-port="0" to-layer="740" to-port="1"/>
		<edge from-layer="434" from-port="0" to-layer="436" to-port="1"/>
		<edge from-layer="434" from-port="0" to-layer="436" to-port="3"/>
		<edge from-layer="434" from-port="0" to-layer="599" to-port="3"/>
		<edge from-layer="434" from-port="0" to-layer="469" to-port="1"/>
		<edge from-layer="434" from-port="0" to-layer="599" to-port="1"/>
		<edge from-layer="434" from-port="0" to-layer="740" to-port="3"/>
		<edge from-layer="434" from-port="0" to-layer="469" to-port="3"/>
		<edge from-layer="435" from-port="0" to-layer="740" to-port="2"/>
		<edge from-layer="435" from-port="0" to-layer="599" to-port="2"/>
		<edge from-layer="435" from-port="0" to-layer="436" to-port="2"/>
		<edge from-layer="435" from-port="0" to-layer="469" to-port="2"/>
		<edge from-layer="436" from-port="4" to-layer="437" to-port="0"/>
		<edge from-layer="437" from-port="1" to-layer="438" to-port="1"/>
		<edge from-layer="438" from-port="2" to-layer="442" to-port="0"/>
		<edge from-layer="439" from-port="0" to-layer="442" to-port="1"/>
		<edge from-layer="440" from-port="0" to-layer="442" to-port="2"/>
		<edge from-layer="441" from-port="0" to-layer="442" to-port="3"/>
		<edge from-layer="442" from-port="4" to-layer="459" to-port="0"/>
		<edge from-layer="443" from-port="0" to-layer="444" to-port="1"/>
		<edge from-layer="444" from-port="2" to-layer="445" to-port="0"/>
		<edge from-layer="444" from-port="2" to-layer="469" to-port="0"/>
		<edge from-layer="445" from-port="1" to-layer="458" to-port="1"/>
		<edge from-layer="445" from-port="1" to-layer="448" to-port="0"/>
		<edge from-layer="445" from-port="1" to-layer="460" to-port="0"/>
		<edge from-layer="445" from-port="1" to-layer="455" to-port="0"/>
		<edge from-layer="446" from-port="0" to-layer="447" to-port="1"/>
		<edge from-layer="447" from-port="2" to-layer="498" to-port="1"/>
		<edge from-layer="447" from-port="2" to-layer="498" to-port="0"/>
		<edge from-layer="447" from-port="2" to-layer="448" to-port="1"/>
		<edge from-layer="447" from-port="2" to-layer="451" to-port="0"/>
		<edge from-layer="448" from-port="2" to-layer="450" to-port="0"/>
		<edge from-layer="449" from-port="0" to-layer="450" to-port="1"/>
		<edge from-layer="450" from-port="2" to-layer="451" to-port="1"/>
		<edge from-layer="451" from-port="2" to-layer="453" to-port="0"/>
		<edge from-layer="452" from-port="0" to-layer="453" to-port="1"/>
		<edge from-layer="453" from-port="2" to-layer="454" to-port="0"/>
		<edge from-layer="454" from-port="1" to-layer="455" to-port="1"/>
		<edge from-layer="454" from-port="1" to-layer="460" to-port="1"/>
		<edge from-layer="455" from-port="2" to-layer="457" to-port="0"/>
		<edge from-layer="456" from-port="0" to-layer="457" to-port="1"/>
		<edge from-layer="457" from-port="2" to-layer="458" to-port="0"/>
		<edge from-layer="458" from-port="2" to-layer="747" to-port="1"/>
		<edge from-layer="458" from-port="2" to-layer="606" to-port="1"/>
		<edge from-layer="458" from-port="2" to-layer="459" to-port="1"/>
		<edge from-layer="459" from-port="2" to-layer="461" to-port="0"/>
		<edge from-layer="460" from-port="2" to-layer="461" to-port="1"/>
		<edge from-layer="460" from-port="2" to-layer="748" to-port="1"/>
		<edge from-layer="460" from-port="2" to-layer="761" to-port="1"/>
		<edge from-layer="460" from-port="2" to-layer="620" to-port="1"/>
		<edge from-layer="460" from-port="2" to-layer="607" to-port="1"/>
		<edge from-layer="460" from-port="2" to-layer="476" to-port="1"/>
		<edge from-layer="461" from-port="2" to-layer="479" to-port="0"/>
		<edge from-layer="461" from-port="2" to-layer="488" to-port="0"/>
		<edge from-layer="462" from-port="0" to-layer="465" to-port="1"/>
		<edge from-layer="463" from-port="0" to-layer="465" to-port="2"/>
		<edge from-layer="464" from-port="0" to-layer="465" to-port="3"/>
		<edge from-layer="465" from-port="4" to-layer="466" to-port="0"/>
		<edge from-layer="466" from-port="1" to-layer="468" to-port="0"/>
		<edge from-layer="467" from-port="0" to-layer="468" to-port="1"/>
		<edge from-layer="468" from-port="2" to-layer="471" to-port="0"/>
		<edge from-layer="469" from-port="4" to-layer="470" to-port="0"/>
		<edge from-layer="470" from-port="1" to-layer="756" to-port="1"/>
		<edge from-layer="470" from-port="1" to-layer="615" to-port="1"/>
		<edge from-layer="470" from-port="1" to-layer="471" to-port="1"/>
		<edge from-layer="471" from-port="2" to-layer="475" to-port="0"/>
		<edge from-layer="472" from-port="0" to-layer="475" to-port="1"/>
		<edge from-layer="473" from-port="0" to-layer="475" to-port="2"/>
		<edge from-layer="474" from-port="0" to-layer="475" to-port="3"/>
		<edge from-layer="475" from-port="4" to-layer="476" to-port="0"/>
		<edge from-layer="476" from-port="2" to-layer="478" to-port="0"/>
		<edge from-layer="477" from-port="0" to-layer="478" to-port="1"/>
		<edge from-layer="478" from-port="2" to-layer="488" to-port="1"/>
		<edge from-layer="478" from-port="2" to-layer="479" to-port="1"/>
		<edge from-layer="479" from-port="2" to-layer="487" to-port="0"/>
		<edge from-layer="479" from-port="2" to-layer="483" to-port="0"/>
		<edge from-layer="480" from-port="0" to-layer="483" to-port="1"/>
		<edge from-layer="481" from-port="0" to-layer="483" to-port="2"/>
		<edge from-layer="482" from-port="0" to-layer="483" to-port="3"/>
		<edge from-layer="483" from-port="4" to-layer="497" to-port="0"/>
		<edge from-layer="484" from-port="0" to-layer="487" to-port="1"/>
		<edge from-layer="485" from-port="0" to-layer="487" to-port="2"/>
		<edge from-layer="486" from-port="0" to-layer="487" to-port="3"/>
		<edge from-layer="487" from-port="4" to-layer="497" to-port="1"/>
		<edge from-layer="488" from-port="2" to-layer="492" to-port="0"/>
		<edge from-layer="488" from-port="2" to-layer="496" to-port="0"/>
		<edge from-layer="489" from-port="0" to-layer="492" to-port="1"/>
		<edge from-layer="490" from-port="0" to-layer="492" to-port="2"/>
		<edge from-layer="491" from-port="0" to-layer="492" to-port="3"/>
		<edge from-layer="492" from-port="4" to-layer="497" to-port="2"/>
		<edge from-layer="493" from-port="0" to-layer="496" to-port="1"/>
		<edge from-layer="494" from-port="0" to-layer="496" to-port="2"/>
		<edge from-layer="495" from-port="0" to-layer="496" to-port="3"/>
		<edge from-layer="496" from-port="4" to-layer="497" to-port="3"/>
		<edge from-layer="497" from-port="4" to-layer="499" to-port="0"/>
		<edge from-layer="498" from-port="2" to-layer="642" to-port="1"/>
		<edge from-layer="498" from-port="2" to-layer="499" to-port="1"/>
		<edge from-layer="498" from-port="2" to-layer="783" to-port="1"/>
		<edge from-layer="499" from-port="2" to-layer="501" to-port="0"/>
		<edge from-layer="500" from-port="0" to-layer="643" to-port="1"/>
		<edge from-layer="500" from-port="0" to-layer="784" to-port="1"/>
		<edge from-layer="500" from-port="0" to-layer="501" to-port="1"/>
		<edge from-layer="501" from-port="2" to-layer="785" to-port="0"/>
		<edge from-layer="502" from-port="0" to-layer="503" to-port="1"/>
		<edge from-layer="503" from-port="2" to-layer="505" to-port="0"/>
		<edge from-layer="504" from-port="0" to-layer="505" to-port="1"/>
		<edge from-layer="505" from-port="2" to-layer="507" to-port="0"/>
		<edge from-layer="506" from-port="0" to-layer="507" to-port="1"/>
		<edge from-layer="507" from-port="2" to-layer="508" to-port="0"/>
		<edge from-layer="507" from-port="2" to-layer="513" to-port="0"/>
		<edge from-layer="508" from-port="1" to-layer="509" to-port="0"/>
		<edge from-layer="509" from-port="1" to-layer="511" to-port="0"/>
		<edge from-layer="510" from-port="0" to-layer="652" to-port="1"/>
		<edge from-layer="510" from-port="0" to-layer="654" to-port="2"/>
		<edge from-layer="510" from-port="0" to-layer="513" to-port="2"/>
		<edge from-layer="510" from-port="0" to-layer="511" to-port="1"/>
		<edge from-layer="511" from-port="2" to-layer="512" to-port="0"/>
		<edge from-layer="512" from-port="1" to-layer="513" to-port="1"/>
		<edge from-layer="513" from-port="3" to-layer="514" to-port="0"/>
		<edge from-layer="514" from-port="2" to-layer="516" to-port="0"/>
		<edge from-layer="515" from-port="0" to-layer="516" to-port="1"/>
		<edge from-layer="516" from-port="2" to-layer="518" to-port="0"/>
		<edge from-layer="517" from-port="0" to-layer="518" to-port="1"/>
		<edge from-layer="518" from-port="2" to-layer="520" to-port="0"/>
		<edge from-layer="519" from-port="0" to-layer="520" to-port="1"/>
		<edge from-layer="520" from-port="2" to-layer="522" to-port="0"/>
		<edge from-layer="521" from-port="0" to-layer="522" to-port="1"/>
		<edge from-layer="522" from-port="2" to-layer="524" to-port="0"/>
		<edge from-layer="523" from-port="0" to-layer="524" to-port="1"/>
		<edge from-layer="524" from-port="2" to-layer="526" to-port="0"/>
		<edge from-layer="525" from-port="0" to-layer="526" to-port="1"/>
		<edge from-layer="526" from-port="2" to-layer="528" to-port="0"/>
		<edge from-layer="527" from-port="0" to-layer="528" to-port="1"/>
		<edge from-layer="528" from-port="2" to-layer="530" to-port="0"/>
		<edge from-layer="529" from-port="0" to-layer="530" to-port="1"/>
		<edge from-layer="530" from-port="2" to-layer="532" to-port="0"/>
		<edge from-layer="531" from-port="0" to-layer="532" to-port="1"/>
		<edge from-layer="532" from-port="2" to-layer="534" to-port="0"/>
		<edge from-layer="533" from-port="0" to-layer="534" to-port="1"/>
		<edge from-layer="534" from-port="2" to-layer="536" to-port="0"/>
		<edge from-layer="535" from-port="0" to-layer="536" to-port="1"/>
		<edge from-layer="536" from-port="2" to-layer="538" to-port="0"/>
		<edge from-layer="537" from-port="0" to-layer="538" to-port="1"/>
		<edge from-layer="538" from-port="2" to-layer="540" to-port="0"/>
		<edge from-layer="539" from-port="0" to-layer="540" to-port="1"/>
		<edge from-layer="540" from-port="2" to-layer="542" to-port="0"/>
		<edge from-layer="541" from-port="0" to-layer="542" to-port="1"/>
		<edge from-layer="542" from-port="2" to-layer="544" to-port="0"/>
		<edge from-layer="543" from-port="0" to-layer="544" to-port="1"/>
		<edge from-layer="544" from-port="2" to-layer="546" to-port="0"/>
		<edge from-layer="544" from-port="2" to-layer="645" to-port="0"/>
		<edge from-layer="545" from-port="0" to-layer="546" to-port="1"/>
		<edge from-layer="546" from-port="2" to-layer="548" to-port="0"/>
		<edge from-layer="547" from-port="0" to-layer="548" to-port="1"/>
		<edge from-layer="548" from-port="2" to-layer="550" to-port="0"/>
		<edge from-layer="549" from-port="0" to-layer="550" to-port="1"/>
		<edge from-layer="550" from-port="2" to-layer="552" to-port="0"/>
		<edge from-layer="551" from-port="0" to-layer="552" to-port="1"/>
		<edge from-layer="552" from-port="2" to-layer="554" to-port="0"/>
		<edge from-layer="553" from-port="0" to-layer="554" to-port="1"/>
		<edge from-layer="554" from-port="2" to-layer="556" to-port="0"/>
		<edge from-layer="554" from-port="2" to-layer="557" to-port="0"/>
		<edge from-layer="555" from-port="0" to-layer="556" to-port="1"/>
		<edge from-layer="556" from-port="2" to-layer="574" to-port="0"/>
		<edge from-layer="557" from-port="1" to-layer="559" to-port="0"/>
		<edge from-layer="558" from-port="0" to-layer="559" to-port="2"/>
		<edge from-layer="559" from-port="3" to-layer="560" to-port="0"/>
		<edge from-layer="560" from-port="1" to-layer="561" to-port="0"/>
		<edge from-layer="561" from-port="4" to-layer="599" to-port="0"/>
		<edge from-layer="561" from-port="4" to-layer="562" to-port="0"/>
		<edge from-layer="561" from-port="4" to-layer="567" to-port="0"/>
		<edge from-layer="562" from-port="4" to-layer="564" to-port="0"/>
		<edge from-layer="563" from-port="0" to-layer="564" to-port="1"/>
		<edge from-layer="564" from-port="2" to-layer="566" to-port="0"/>
		<edge from-layer="564" from-port="2" to-layer="588" to-port="0"/>
		<edge from-layer="565" from-port="0" to-layer="566" to-port="1"/>
		<edge from-layer="566" from-port="2" to-layer="585" to-port="0"/>
		<edge from-layer="566" from-port="2" to-layer="572" to-port="1"/>
		<edge from-layer="567" from-port="4" to-layer="569" to-port="0"/>
		<edge from-layer="568" from-port="0" to-layer="569" to-port="1"/>
		<edge from-layer="569" from-port="2" to-layer="580" to-port="0"/>
		<edge from-layer="569" from-port="2" to-layer="571" to-port="0"/>
		<edge from-layer="570" from-port="0" to-layer="571" to-port="1"/>
		<edge from-layer="571" from-port="2" to-layer="572" to-port="2"/>
		<edge from-layer="571" from-port="2" to-layer="593" to-port="1"/>
		<edge from-layer="572" from-port="5" to-layer="573" to-port="0"/>
		<edge from-layer="573" from-port="1" to-layer="574" to-port="1"/>
		<edge from-layer="574" from-port="2" to-layer="611" to-port="0"/>
		<edge from-layer="574" from-port="2" to-layer="578" to-port="0"/>
		<edge from-layer="574" from-port="2" to-layer="809" to-port="0"/>
		<edge from-layer="574" from-port="2" to-layer="804" to-port="0"/>
		<edge from-layer="575" from-port="0" to-layer="578" to-port="1"/>
		<edge from-layer="576" from-port="0" to-layer="578" to-port="2"/>
		<edge from-layer="577" from-port="0" to-layer="578" to-port="3"/>
		<edge from-layer="578" from-port="4" to-layer="579" to-port="0"/>
		<edge from-layer="579" from-port="1" to-layer="598" to-port="0"/>
		<edge from-layer="580" from-port="1" to-layer="581" to-port="0"/>
		<edge from-layer="581" from-port="1" to-layer="582" to-port="0"/>
		<edge from-layer="582" from-port="1" to-layer="583" to-port="0"/>
		<edge from-layer="583" from-port="4" to-layer="584" to-port="0"/>
		<edge from-layer="584" from-port="2" to-layer="587" to-port="0"/>
		<edge from-layer="585" from-port="4" to-layer="586" to-port="0"/>
		<edge from-layer="586" from-port="1" to-layer="587" to-port="1"/>
		<edge from-layer="587" from-port="2" to-layer="596" to-port="0"/>
		<edge from-layer="588" from-port="1" to-layer="589" to-port="0"/>
		<edge from-layer="589" from-port="1" to-layer="590" to-port="0"/>
		<edge from-layer="590" from-port="1" to-layer="591" to-port="0"/>
		<edge from-layer="591" from-port="4" to-layer="592" to-port="0"/>
		<edge from-layer="592" from-port="2" to-layer="595" to-port="0"/>
		<edge from-layer="593" from-port="4" to-layer="594" to-port="0"/>
		<edge from-layer="594" from-port="1" to-layer="595" to-port="1"/>
		<edge from-layer="595" from-port="2" to-layer="596" to-port="1"/>
		<edge from-layer="596" from-port="2" to-layer="597" to-port="0"/>
		<edge from-layer="597" from-port="1" to-layer="598" to-port="1"/>
		<edge from-layer="598" from-port="2" to-layer="601" to-port="0"/>
		<edge from-layer="599" from-port="4" to-layer="600" to-port="0"/>
		<edge from-layer="600" from-port="1" to-layer="601" to-port="1"/>
		<edge from-layer="601" from-port="2" to-layer="605" to-port="0"/>
		<edge from-layer="602" from-port="0" to-layer="605" to-port="1"/>
		<edge from-layer="603" from-port="0" to-layer="605" to-port="2"/>
		<edge from-layer="604" from-port="0" to-layer="605" to-port="3"/>
		<edge from-layer="605" from-port="4" to-layer="606" to-port="0"/>
		<edge from-layer="606" from-port="2" to-layer="607" to-port="0"/>
		<edge from-layer="607" from-port="2" to-layer="632" to-port="0"/>
		<edge from-layer="607" from-port="2" to-layer="623" to-port="0"/>
		<edge from-layer="608" from-port="0" to-layer="611" to-port="1"/>
		<edge from-layer="609" from-port="0" to-layer="611" to-port="2"/>
		<edge from-layer="610" from-port="0" to-layer="611" to-port="3"/>
		<edge from-layer="611" from-port="4" to-layer="612" to-port="0"/>
		<edge from-layer="612" from-port="1" to-layer="614" to-port="0"/>
		<edge from-layer="613" from-port="0" to-layer="614" to-port="1"/>
		<edge from-layer="614" from-port="2" to-layer="615" to-port="0"/>
		<edge from-layer="615" from-port="2" to-layer="619" to-port="0"/>
		<edge from-layer="616" from-port="0" to-layer="619" to-port="1"/>
		<edge from-layer="617" from-port="0" to-layer="619" to-port="2"/>
		<edge from-layer="618" from-port="0" to-layer="619" to-port="3"/>
		<edge from-layer="619" from-port="4" to-layer="620" to-port="0"/>
		<edge from-layer="620" from-port="2" to-layer="622" to-port="0"/>
		<edge from-layer="621" from-port="0" to-layer="622" to-port="1"/>
		<edge from-layer="622" from-port="2" to-layer="632" to-port="1"/>
		<edge from-layer="622" from-port="2" to-layer="623" to-port="1"/>
		<edge from-layer="623" from-port="2" to-layer="627" to-port="0"/>
		<edge from-layer="623" from-port="2" to-layer="631" to-port="0"/>
		<edge from-layer="624" from-port="0" to-layer="627" to-port="1"/>
		<edge from-layer="625" from-port="0" to-layer="627" to-port="2"/>
		<edge from-layer="626" from-port="0" to-layer="627" to-port="3"/>
		<edge from-layer="627" from-port="4" to-layer="641" to-port="0"/>
		<edge from-layer="628" from-port="0" to-layer="631" to-port="1"/>
		<edge from-layer="629" from-port="0" to-layer="631" to-port="2"/>
		<edge from-layer="630" from-port="0" to-layer="631" to-port="3"/>
		<edge from-layer="631" from-port="4" to-layer="641" to-port="1"/>
		<edge from-layer="632" from-port="2" to-layer="636" to-port="0"/>
		<edge from-layer="632" from-port="2" to-layer="640" to-port="0"/>
		<edge from-layer="633" from-port="0" to-layer="636" to-port="1"/>
		<edge from-layer="634" from-port="0" to-layer="636" to-port="2"/>
		<edge from-layer="635" from-port="0" to-layer="636" to-port="3"/>
		<edge from-layer="636" from-port="4" to-layer="641" to-port="2"/>
		<edge from-layer="637" from-port="0" to-layer="640" to-port="1"/>
		<edge from-layer="638" from-port="0" to-layer="640" to-port="2"/>
		<edge from-layer="639" from-port="0" to-layer="640" to-port="3"/>
		<edge from-layer="640" from-port="4" to-layer="641" to-port="3"/>
		<edge from-layer="641" from-port="4" to-layer="642" to-port="0"/>
		<edge from-layer="642" from-port="2" to-layer="643" to-port="0"/>
		<edge from-layer="643" from-port="2" to-layer="785" to-port="1"/>
		<edge from-layer="644" from-port="0" to-layer="645" to-port="1"/>
		<edge from-layer="645" from-port="2" to-layer="647" to-port="0"/>
		<edge from-layer="646" from-port="0" to-layer="647" to-port="1"/>
		<edge from-layer="647" from-port="2" to-layer="649" to-port="0"/>
		<edge from-layer="648" from-port="0" to-layer="649" to-port="1"/>
		<edge from-layer="649" from-port="2" to-layer="654" to-port="0"/>
		<edge from-layer="649" from-port="2" to-layer="650" to-port="0"/>
		<edge from-layer="650" from-port="1" to-layer="651" to-port="0"/>
		<edge from-layer="651" from-port="1" to-layer="652" to-port="0"/>
		<edge from-layer="652" from-port="2" to-layer="653" to-port="0"/>
		<edge from-layer="653" from-port="1" to-layer="654" to-port="1"/>
		<edge from-layer="654" from-port="3" to-layer="655" to-port="0"/>
		<edge from-layer="655" from-port="2" to-layer="657" to-port="0"/>
		<edge from-layer="656" from-port="0" to-layer="657" to-port="1"/>
		<edge from-layer="657" from-port="2" to-layer="659" to-port="0"/>
		<edge from-layer="658" from-port="0" to-layer="659" to-port="1"/>
		<edge from-layer="659" from-port="2" to-layer="661" to-port="0"/>
		<edge from-layer="660" from-port="0" to-layer="661" to-port="1"/>
		<edge from-layer="661" from-port="2" to-layer="663" to-port="0"/>
		<edge from-layer="662" from-port="0" to-layer="663" to-port="1"/>
		<edge from-layer="663" from-port="2" to-layer="665" to-port="0"/>
		<edge from-layer="664" from-port="0" to-layer="665" to-port="1"/>
		<edge from-layer="665" from-port="2" to-layer="667" to-port="0"/>
		<edge from-layer="666" from-port="0" to-layer="667" to-port="1"/>
		<edge from-layer="667" from-port="2" to-layer="669" to-port="0"/>
		<edge from-layer="668" from-port="0" to-layer="669" to-port="1"/>
		<edge from-layer="669" from-port="2" to-layer="671" to-port="0"/>
		<edge from-layer="670" from-port="0" to-layer="671" to-port="1"/>
		<edge from-layer="671" from-port="2" to-layer="673" to-port="0"/>
		<edge from-layer="672" from-port="0" to-layer="673" to-port="1"/>
		<edge from-layer="673" from-port="2" to-layer="675" to-port="0"/>
		<edge from-layer="674" from-port="0" to-layer="675" to-port="1"/>
		<edge from-layer="675" from-port="2" to-layer="677" to-port="0"/>
		<edge from-layer="676" from-port="0" to-layer="677" to-port="1"/>
		<edge from-layer="677" from-port="2" to-layer="679" to-port="0"/>
		<edge from-layer="678" from-port="0" to-layer="679" to-port="1"/>
		<edge from-layer="679" from-port="2" to-layer="681" to-port="0"/>
		<edge from-layer="680" from-port="0" to-layer="681" to-port="1"/>
		<edge from-layer="681" from-port="2" to-layer="683" to-port="0"/>
		<edge from-layer="682" from-port="0" to-layer="683" to-port="1"/>
		<edge from-layer="683" from-port="2" to-layer="685" to-port="0"/>
		<edge from-layer="684" from-port="0" to-layer="685" to-port="1"/>
		<edge from-layer="685" from-port="2" to-layer="687" to-port="0"/>
		<edge from-layer="686" from-port="0" to-layer="687" to-port="1"/>
		<edge from-layer="687" from-port="2" to-layer="689" to-port="0"/>
		<edge from-layer="688" from-port="0" to-layer="689" to-port="1"/>
		<edge from-layer="689" from-port="2" to-layer="691" to-port="0"/>
		<edge from-layer="690" from-port="0" to-layer="691" to-port="1"/>
		<edge from-layer="691" from-port="2" to-layer="693" to-port="0"/>
		<edge from-layer="692" from-port="0" to-layer="693" to-port="1"/>
		<edge from-layer="693" from-port="2" to-layer="695" to-port="0"/>
		<edge from-layer="694" from-port="0" to-layer="695" to-port="1"/>
		<edge from-layer="695" from-port="2" to-layer="697" to-port="0"/>
		<edge from-layer="695" from-port="2" to-layer="698" to-port="0"/>
		<edge from-layer="696" from-port="0" to-layer="697" to-port="1"/>
		<edge from-layer="697" from-port="2" to-layer="715" to-port="0"/>
		<edge from-layer="698" from-port="1" to-layer="700" to-port="0"/>
		<edge from-layer="699" from-port="0" to-layer="700" to-port="2"/>
		<edge from-layer="700" from-port="3" to-layer="701" to-port="0"/>
		<edge from-layer="701" from-port="1" to-layer="702" to-port="0"/>
		<edge from-layer="702" from-port="4" to-layer="740" to-port="0"/>
		<edge from-layer="702" from-port="4" to-layer="703" to-port="0"/>
		<edge from-layer="702" from-port="4" to-layer="708" to-port="0"/>
		<edge from-layer="703" from-port="4" to-layer="705" to-port="0"/>
		<edge from-layer="704" from-port="0" to-layer="705" to-port="1"/>
		<edge from-layer="705" from-port="2" to-layer="729" to-port="0"/>
		<edge from-layer="705" from-port="2" to-layer="707" to-port="0"/>
		<edge from-layer="706" from-port="0" to-layer="707" to-port="1"/>
		<edge from-layer="707" from-port="2" to-layer="726" to-port="0"/>
		<edge from-layer="707" from-port="2" to-layer="713" to-port="1"/>
		<edge from-layer="708" from-port="4" to-layer="710" to-port="0"/>
		<edge from-layer="709" from-port="0" to-layer="710" to-port="1"/>
		<edge from-layer="710" from-port="2" to-layer="712" to-port="0"/>
		<edge from-layer="710" from-port="2" to-layer="721" to-port="0"/>
		<edge from-layer="711" from-port="0" to-layer="712" to-port="1"/>
		<edge from-layer="712" from-port="2" to-layer="734" to-port="1"/>
		<edge from-layer="712" from-port="2" to-layer="713" to-port="2"/>
		<edge from-layer="713" from-port="5" to-layer="714" to-port="0"/>
		<edge from-layer="714" from-port="1" to-layer="715" to-port="1"/>
		<edge from-layer="715" from-port="2" to-layer="752" to-port="0"/>
		<edge from-layer="715" from-port="2" to-layer="816" to-port="0"/>
		<edge from-layer="715" from-port="2" to-layer="821" to-port="0"/>
		<edge from-layer="715" from-port="2" to-layer="719" to-port="0"/>
		<edge from-layer="716" from-port="0" to-layer="719" to-port="1"/>
		<edge from-layer="717" from-port="0" to-layer="719" to-port="2"/>
		<edge from-layer="718" from-port="0" to-layer="719" to-port="3"/>
		<edge from-layer="719" from-port="4" to-layer="720" to-port="0"/>
		<edge from-layer="720" from-port="1" to-layer="739" to-port="0"/>
		<edge from-layer="721" from-port="1" to-layer="722" to-port="0"/>
		<edge from-layer="722" from-port="1" to-layer="723" to-port="0"/>
		<edge from-layer="723" from-port="1" to-layer="724" to-port="0"/>
		<edge from-layer="724" from-port="4" to-layer="725" to-port="0"/>
		<edge from-layer="725" from-port="2" to-layer="728" to-port="0"/>
		<edge from-layer="726" from-port="4" to-layer="727" to-port="0"/>
		<edge from-layer="727" from-port="1" to-layer="728" to-port="1"/>
		<edge from-layer="728" from-port="2" to-layer="737" to-port="0"/>
		<edge from-layer="729" from-port="1" to-layer="730" to-port="0"/>
		<edge from-layer="730" from-port="1" to-layer="731" to-port="0"/>
		<edge from-layer="731" from-port="1" to-layer="732" to-port="0"/>
		<edge from-layer="732" from-port="4" to-layer="733" to-port="0"/>
		<edge from-layer="733" from-port="2" to-layer="736" to-port="0"/>
		<edge from-layer="734" from-port="4" to-layer="735" to-port="0"/>
		<edge from-layer="735" from-port="1" to-layer="736" to-port="1"/>
		<edge from-layer="736" from-port="2" to-layer="737" to-port="1"/>
		<edge from-layer="737" from-port="2" to-layer="738" to-port="0"/>
		<edge from-layer="738" from-port="1" to-layer="739" to-port="1"/>
		<edge from-layer="739" from-port="2" to-layer="742" to-port="0"/>
		<edge from-layer="740" from-port="4" to-layer="741" to-port="0"/>
		<edge from-layer="741" from-port="1" to-layer="742" to-port="1"/>
		<edge from-layer="742" from-port="2" to-layer="746" to-port="0"/>
		<edge from-layer="743" from-port="0" to-layer="746" to-port="1"/>
		<edge from-layer="744" from-port="0" to-layer="746" to-port="2"/>
		<edge from-layer="745" from-port="0" to-layer="746" to-port="3"/>
		<edge from-layer="746" from-port="4" to-layer="747" to-port="0"/>
		<edge from-layer="747" from-port="2" to-layer="748" to-port="0"/>
		<edge from-layer="748" from-port="2" to-layer="773" to-port="0"/>
		<edge from-layer="748" from-port="2" to-layer="764" to-port="0"/>
		<edge from-layer="749" from-port="0" to-layer="752" to-port="1"/>
		<edge from-layer="750" from-port="0" to-layer="752" to-port="2"/>
		<edge from-layer="751" from-port="0" to-layer="752" to-port="3"/>
		<edge from-layer="752" from-port="4" to-layer="753" to-port="0"/>
		<edge from-layer="753" from-port="1" to-layer="755" to-port="0"/>
		<edge from-layer="754" from-port="0" to-layer="755" to-port="1"/>
		<edge from-layer="755" from-port="2" to-layer="756" to-port="0"/>
		<edge from-layer="756" from-port="2" to-layer="760" to-port="0"/>
		<edge from-layer="757" from-port="0" to-layer="760" to-port="1"/>
		<edge from-layer="758" from-port="0" to-layer="760" to-port="2"/>
		<edge from-layer="759" from-port="0" to-layer="760" to-port="3"/>
		<edge from-layer="760" from-port="4" to-layer="761" to-port="0"/>
		<edge from-layer="761" from-port="2" to-layer="763" to-port="0"/>
		<edge from-layer="762" from-port="0" to-layer="763" to-port="1"/>
		<edge from-layer="763" from-port="2" to-layer="764" to-port="1"/>
		<edge from-layer="763" from-port="2" to-layer="773" to-port="1"/>
		<edge from-layer="764" from-port="2" to-layer="768" to-port="0"/>
		<edge from-layer="764" from-port="2" to-layer="772" to-port="0"/>
		<edge from-layer="765" from-port="0" to-layer="768" to-port="1"/>
		<edge from-layer="766" from-port="0" to-layer="768" to-port="2"/>
		<edge from-layer="767" from-port="0" to-layer="768" to-port="3"/>
		<edge from-layer="768" from-port="4" to-layer="782" to-port="0"/>
		<edge from-layer="769" from-port="0" to-layer="772" to-port="1"/>
		<edge from-layer="770" from-port="0" to-layer="772" to-port="2"/>
		<edge from-layer="771" from-port="0" to-layer="772" to-port="3"/>
		<edge from-layer="772" from-port="4" to-layer="782" to-port="1"/>
		<edge from-layer="773" from-port="2" to-layer="777" to-port="0"/>
		<edge from-layer="773" from-port="2" to-layer="781" to-port="0"/>
		<edge from-layer="774" from-port="0" to-layer="777" to-port="1"/>
		<edge from-layer="775" from-port="0" to-layer="777" to-port="2"/>
		<edge from-layer="776" from-port="0" to-layer="777" to-port="3"/>
		<edge from-layer="777" from-port="4" to-layer="782" to-port="2"/>
		<edge from-layer="778" from-port="0" to-layer="781" to-port="1"/>
		<edge from-layer="779" from-port="0" to-layer="781" to-port="2"/>
		<edge from-layer="780" from-port="0" to-layer="781" to-port="3"/>
		<edge from-layer="781" from-port="4" to-layer="782" to-port="3"/>
		<edge from-layer="782" from-port="4" to-layer="783" to-port="0"/>
		<edge from-layer="783" from-port="2" to-layer="784" to-port="0"/>
		<edge from-layer="784" from-port="2" to-layer="785" to-port="2"/>
		<edge from-layer="785" from-port="3" to-layer="787" to-port="0"/>
		<edge from-layer="786" from-port="0" to-layer="787" to-port="1"/>
		<edge from-layer="787" from-port="2" to-layer="833" to-port="0"/>
		<edge from-layer="787" from-port="2" to-layer="837" to-port="0"/>
		<edge from-layer="788" from-port="0" to-layer="791" to-port="1"/>
		<edge from-layer="789" from-port="0" to-layer="791" to-port="2"/>
		<edge from-layer="790" from-port="0" to-layer="791" to-port="3"/>
		<edge from-layer="791" from-port="4" to-layer="792" to-port="0"/>
		<edge from-layer="792" from-port="1" to-layer="798" to-port="0"/>
		<edge from-layer="793" from-port="0" to-layer="796" to-port="1"/>
		<edge from-layer="794" from-port="0" to-layer="796" to-port="2"/>
		<edge from-layer="795" from-port="0" to-layer="796" to-port="3"/>
		<edge from-layer="796" from-port="4" to-layer="797" to-port="0"/>
		<edge from-layer="797" from-port="1" to-layer="798" to-port="1"/>
		<edge from-layer="798" from-port="2" to-layer="800" to-port="0"/>
		<edge from-layer="799" from-port="0" to-layer="800" to-port="1"/>
		<edge from-layer="799" from-port="0" to-layer="824" to-port="1"/>
		<edge from-layer="799" from-port="0" to-layer="812" to-port="1"/>
		<edge from-layer="800" from-port="2" to-layer="825" to-port="0"/>
		<edge from-layer="801" from-port="0" to-layer="804" to-port="1"/>
		<edge from-layer="802" from-port="0" to-layer="804" to-port="2"/>
		<edge from-layer="803" from-port="0" to-layer="804" to-port="3"/>
		<edge from-layer="804" from-port="4" to-layer="805" to-port="0"/>
		<edge from-layer="805" from-port="1" to-layer="811" to-port="0"/>
		<edge from-layer="806" from-port="0" to-layer="809" to-port="1"/>
		<edge from-layer="807" from-port="0" to-layer="809" to-port="2"/>
		<edge from-layer="808" from-port="0" to-layer="809" to-port="3"/>
		<edge from-layer="809" from-port="4" to-layer="810" to-port="0"/>
		<edge from-layer="810" from-port="1" to-layer="811" to-port="1"/>
		<edge from-layer="811" from-port="2" to-layer="812" to-port="0"/>
		<edge from-layer="812" from-port="2" to-layer="825" to-port="1"/>
		<edge from-layer="813" from-port="0" to-layer="816" to-port="1"/>
		<edge from-layer="814" from-port="0" to-layer="816" to-port="2"/>
		<edge from-layer="815" from-port="0" to-layer="816" to-port="3"/>
		<edge from-layer="816" from-port="4" to-layer="817" to-port="0"/>
		<edge from-layer="817" from-port="1" to-layer="823" to-port="0"/>
		<edge from-layer="818" from-port="0" to-layer="821" to-port="1"/>
		<edge from-layer="819" from-port="0" to-layer="821" to-port="2"/>
		<edge from-layer="820" from-port="0" to-layer="821" to-port="3"/>
		<edge from-layer="821" from-port="4" to-layer="822" to-port="0"/>
		<edge from-layer="822" from-port="1" to-layer="823" to-port="1"/>
		<edge from-layer="823" from-port="2" to-layer="824" to-port="0"/>
		<edge from-layer="824" from-port="2" to-layer="825" to-port="2"/>
		<edge from-layer="825" from-port="3" to-layer="827" to-port="0"/>
		<edge from-layer="826" from-port="0" to-layer="827" to-port="1"/>
		<edge from-layer="827" from-port="2" to-layer="829" to-port="0"/>
		<edge from-layer="828" from-port="0" to-layer="829" to-port="1"/>
		<edge from-layer="829" from-port="2" to-layer="833" to-port="1"/>
		<edge from-layer="829" from-port="2" to-layer="836" to-port="0"/>
		<edge from-layer="830" from-port="0" to-layer="833" to-port="2"/>
		<edge from-layer="831" from-port="0" to-layer="833" to-port="3"/>
		<edge from-layer="832" from-port="0" to-layer="833" to-port="4"/>
		<edge from-layer="833" from-port="5" to-layer="834" to-port="0"/>
		<edge from-layer="834" from-port="1" to-layer="835" to-port="0"/>
	</edges>
	<meta_data>
		<MO_version value="2022.1.0-7019-cdb9bec7210-releases/2022/1"/>
		<Runtime_version value="2022.1.0-7019-cdb9bec7210-releases/2022/1"/>
		<legacy_path value="False"/>
		<cli_parameters>
			<caffe_parser_path value="DIR"/>
			<compress_fp16 value="False"/>
			<data_type value="FP32"/>
			<disable_nhwc_to_nchw value="False"/>
			<disable_omitting_optional value="False"/>
			<disable_resnet_optimization value="False"/>
			<disable_weights_compression value="False"/>
			<enable_concat_optimization value="False"/>
			<enable_flattening_nested_params value="False"/>
			<enable_ssd_gluoncv value="False"/>
			<extensions value="DIR"/>
			<framework value="onnx"/>
			<freeze_placeholder_with_value value="{}"/>
			<input value="input_1,image_shape"/>
			<input_model value="DIR/yolov3-10.onnx"/>
			<input_model_is_text value="False"/>
			<input_shape value="[1, 3, 416, 416],[1, 2]"/>
			<k value="DIR/CustomLayersMapping.xml"/>
			<layout value="input_1(NCHW),image_shape(NC)"/>
			<layout_values value="{'input_1': {'source_layout': 'NCHW', 'target_layout': None, 'is_input': True}, 'image_shape': {'source_layout': 'NC', 'target_layout': None, 'is_input': True}}"/>
			<legacy_mxnet_model value="False"/>
			<log_level value="ERROR"/>
			<mean_scale_values value="{'input_1': {'mean': None, 'scale': array([255.])}}"/>
			<mean_values value="()"/>
			<model_name value="yolo-v3-onnx"/>
			<output_dir value="DIR"/>
			<placeholder_data_types value="{}"/>
			<placeholder_shapes value="{'input_1': (1, 3, 416, 416), 'image_shape': (1, 2)}"/>
			<progress value="False"/>
			<remove_memory value="False"/>
			<remove_output_softmax value="False"/>
			<reverse_input_channels value="True"/>
			<save_params_from_nd value="False"/>
			<scale_values value="input_1[255]"/>
			<silent value="False"/>
			<source_layout value="()"/>
			<static_shape value="False"/>
			<stream_output value="False"/>
			<target_layout value="()"/>
			<transform value=""/>
			<use_legacy_frontend value="False"/>
			<use_new_frontend value="False"/>
			<unset unset_cli_parameters="batch, counts, disable_fusing, finegrain_fusing, input_checkpoint, input_meta_graph, input_proto, input_symbol, mean_file, mean_file_offsets, nd_prefix_name, output, pretrained_model_name, saved_model_dir, saved_model_tags, scale, tensorboard_logdir, tensorflow_custom_layer_libraries, tensorflow_custom_operations_config_update, tensorflow_object_detection_api_pipeline_config, tensorflow_use_custom_operations_config, transformations_config"/>
		</cli_parameters>
	</meta_data>
</net>
